<?xml version="1.0" ?>
<net name="torch_jit" version="11">
	<layers>
		<layer id="112" name="image" type="Parameter" version="opset1">
			<data shape="-1,3,416,416" element_type="f32"/>
			<output>
				<port id="0" precision="FP32" names="image">
					<dim>-1</dim>
					<dim>3</dim>
					<dim>416</dim>
					<dim>416</dim>
					<rt_info/>
				</port>
			</output>
		</layer>
		<layer id="0" name="4412441622758" type="Const" version="opset1">
			<data offset="0" size="4" shape="" element_type="f32"/>
			<output>
				<port id="0" precision="FP32"/>
			</output>
		</layer>
		<layer id="1" name="4413441721867" type="Const" version="opset1">
			<data offset="4" size="4" shape="" element_type="f32"/>
			<output>
				<port id="0" precision="FP32"/>
			</output>
		</layer>
		<layer id="2" name="4414441822422" type="Const" version="opset1">
			<data offset="0" size="4" shape="" element_type="f32"/>
			<output>
				<port id="0" precision="FP32"/>
			</output>
		</layer>
		<layer id="3" name="4415441922266" type="Const" version="opset1">
			<data offset="4" size="4" shape="" element_type="f32"/>
			<output>
				<port id="0" precision="FP32"/>
			</output>
		</layer>
		<layer id="4" name="5362536620568" type="Const" version="opset1">
			<data offset="8" size="4" shape="" element_type="f32"/>
			<output>
				<port id="0" precision="FP32"/>
			</output>
		</layer>
		<layer id="5" name="5363536721843" type="Const" version="opset1">
			<data offset="12" size="4" shape="" element_type="f32"/>
			<output>
				<port id="0" precision="FP32"/>
			</output>
		</layer>
		<layer id="6" name="5364536821501" type="Const" version="opset1">
			<data offset="8" size="4" shape="" element_type="f32"/>
			<output>
				<port id="0" precision="FP32"/>
			</output>
		</layer>
		<layer id="7" name="5365536922389" type="Const" version="opset1">
			<data offset="12" size="4" shape="" element_type="f32"/>
			<output>
				<port id="0" precision="FP32"/>
			</output>
		</layer>
		<layer id="8" name="5032503622500" type="Const" version="opset1">
			<data offset="16" size="4" shape="" element_type="f32"/>
			<output>
				<port id="0" precision="FP32"/>
			</output>
		</layer>
		<layer id="9" name="5033503722731" type="Const" version="opset1">
			<data offset="20" size="4" shape="" element_type="f32"/>
			<output>
				<port id="0" precision="FP32"/>
			</output>
		</layer>
		<layer id="10" name="5034503821906" type="Const" version="opset1">
			<data offset="16" size="4" shape="" element_type="f32"/>
			<output>
				<port id="0" precision="FP32"/>
			</output>
		</layer>
		<layer id="11" name="5035503922734" type="Const" version="opset1">
			<data offset="20" size="4" shape="" element_type="f32"/>
			<output>
				<port id="0" precision="FP32"/>
			</output>
		</layer>
		<layer id="12" name="5212521621837" type="Const" version="opset1">
			<data offset="24" size="4" shape="" element_type="f32"/>
			<output>
				<port id="0" precision="FP32"/>
			</output>
		</layer>
		<layer id="13" name="5213521721171" type="Const" version="opset1">
			<data offset="28" size="4" shape="" element_type="f32"/>
			<output>
				<port id="0" precision="FP32"/>
			</output>
		</layer>
		<layer id="14" name="5214521821858" type="Const" version="opset1">
			<data offset="24" size="4" shape="" element_type="f32"/>
			<output>
				<port id="0" precision="FP32"/>
			</output>
		</layer>
		<layer id="15" name="5215521922521" type="Const" version="opset1">
			<data offset="28" size="4" shape="" element_type="f32"/>
			<output>
				<port id="0" precision="FP32"/>
			</output>
		</layer>
		<layer id="16" name="7145714921186" type="Const" version="opset1">
			<data offset="32" size="4" shape="" element_type="f32"/>
			<output>
				<port id="0" precision="FP32"/>
			</output>
		</layer>
		<layer id="17" name="7146715021219" type="Const" version="opset1">
			<data offset="36" size="4" shape="" element_type="f32"/>
			<output>
				<port id="0" precision="FP32"/>
			</output>
		</layer>
		<layer id="18" name="7147715121933" type="Const" version="opset1">
			<data offset="32" size="4" shape="" element_type="f32"/>
			<output>
				<port id="0" precision="FP32"/>
			</output>
		</layer>
		<layer id="19" name="7148715222002" type="Const" version="opset1">
			<data offset="36" size="4" shape="" element_type="f32"/>
			<output>
				<port id="0" precision="FP32"/>
			</output>
		</layer>
		<layer id="20" name="4932493620739" type="Const" version="opset1">
			<data offset="40" size="4" shape="" element_type="f32"/>
			<output>
				<port id="0" precision="FP32"/>
			</output>
		</layer>
		<layer id="21" name="4933493720967" type="Const" version="opset1">
			<data offset="44" size="4" shape="" element_type="f32"/>
			<output>
				<port id="0" precision="FP32"/>
			</output>
		</layer>
		<layer id="22" name="4934493821654" type="Const" version="opset1">
			<data offset="40" size="4" shape="" element_type="f32"/>
			<output>
				<port id="0" precision="FP32"/>
			</output>
		</layer>
		<layer id="23" name="4935493921828" type="Const" version="opset1">
			<data offset="44" size="4" shape="" element_type="f32"/>
			<output>
				<port id="0" precision="FP32"/>
			</output>
		</layer>
		<layer id="24" name="4972497622278" type="Const" version="opset1">
			<data offset="48" size="4" shape="" element_type="f32"/>
			<output>
				<port id="0" precision="FP32"/>
			</output>
		</layer>
		<layer id="25" name="4973497720559" type="Const" version="opset1">
			<data offset="52" size="4" shape="" element_type="f32"/>
			<output>
				<port id="0" precision="FP32"/>
			</output>
		</layer>
		<layer id="26" name="4974497821063" type="Const" version="opset1">
			<data offset="48" size="4" shape="" element_type="f32"/>
			<output>
				<port id="0" precision="FP32"/>
			</output>
		</layer>
		<layer id="27" name="4975497922872" type="Const" version="opset1">
			<data offset="52" size="4" shape="" element_type="f32"/>
			<output>
				<port id="0" precision="FP32"/>
			</output>
		</layer>
		<layer id="28" name="7115711922200" type="Const" version="opset1">
			<data offset="56" size="4" shape="" element_type="f32"/>
			<output>
				<port id="0" precision="FP32"/>
			</output>
		</layer>
		<layer id="29" name="7116712021336" type="Const" version="opset1">
			<data offset="60" size="4" shape="" element_type="f32"/>
			<output>
				<port id="0" precision="FP32"/>
			</output>
		</layer>
		<layer id="30" name="7117712121006" type="Const" version="opset1">
			<data offset="56" size="4" shape="" element_type="f32"/>
			<output>
				<port id="0" precision="FP32"/>
			</output>
		</layer>
		<layer id="31" name="7118712221180" type="Const" version="opset1">
			<data offset="60" size="4" shape="" element_type="f32"/>
			<output>
				<port id="0" precision="FP32"/>
			</output>
		</layer>
		<layer id="32" name="6915691921009" type="Const" version="opset1">
			<data offset="64" size="4" shape="" element_type="f32"/>
			<output>
				<port id="0" precision="FP32"/>
			</output>
		</layer>
		<layer id="33" name="6916692021258" type="Const" version="opset1">
			<data offset="68" size="4" shape="" element_type="f32"/>
			<output>
				<port id="0" precision="FP32"/>
			</output>
		</layer>
		<layer id="34" name="6917692121360" type="Const" version="opset1">
			<data offset="64" size="4" shape="" element_type="f32"/>
			<output>
				<port id="0" precision="FP32"/>
			</output>
		</layer>
		<layer id="35" name="6918692220610" type="Const" version="opset1">
			<data offset="68" size="4" shape="" element_type="f32"/>
			<output>
				<port id="0" precision="FP32"/>
			</output>
		</layer>
		<layer id="36" name="4812481622815" type="Const" version="opset1">
			<data offset="72" size="4" shape="" element_type="f32"/>
			<output>
				<port id="0" precision="FP32"/>
			</output>
		</layer>
		<layer id="37" name="4813481720757" type="Const" version="opset1">
			<data offset="76" size="4" shape="" element_type="f32"/>
			<output>
				<port id="0" precision="FP32"/>
			</output>
		</layer>
		<layer id="38" name="4814481822749" type="Const" version="opset1">
			<data offset="72" size="4" shape="" element_type="f32"/>
			<output>
				<port id="0" precision="FP32"/>
			</output>
		</layer>
		<layer id="39" name="4815481921678" type="Const" version="opset1">
			<data offset="76" size="4" shape="" element_type="f32"/>
			<output>
				<port id="0" precision="FP32"/>
			</output>
		</layer>
		<layer id="40" name="5402540622776" type="Const" version="opset1">
			<data offset="80" size="4" shape="" element_type="f32"/>
			<output>
				<port id="0" precision="FP32"/>
			</output>
		</layer>
		<layer id="41" name="5403540721738" type="Const" version="opset1">
			<data offset="84" size="4" shape="" element_type="f32"/>
			<output>
				<port id="0" precision="FP32"/>
			</output>
		</layer>
		<layer id="42" name="5404540820550" type="Const" version="opset1">
			<data offset="80" size="4" shape="" element_type="f32"/>
			<output>
				<port id="0" precision="FP32"/>
			</output>
		</layer>
		<layer id="43" name="5405540922557" type="Const" version="opset1">
			<data offset="84" size="4" shape="" element_type="f32"/>
			<output>
				<port id="0" precision="FP32"/>
			</output>
		</layer>
		<layer id="44" name="4822482621756" type="Const" version="opset1">
			<data offset="88" size="4" shape="" element_type="f32"/>
			<output>
				<port id="0" precision="FP32"/>
			</output>
		</layer>
		<layer id="45" name="4823482721129" type="Const" version="opset1">
			<data offset="92" size="4" shape="" element_type="f32"/>
			<output>
				<port id="0" precision="FP32"/>
			</output>
		</layer>
		<layer id="46" name="4824482820382" type="Const" version="opset1">
			<data offset="88" size="4" shape="" element_type="f32"/>
			<output>
				<port id="0" precision="FP32"/>
			</output>
		</layer>
		<layer id="47" name="4825482921249" type="Const" version="opset1">
			<data offset="92" size="4" shape="" element_type="f32"/>
			<output>
				<port id="0" precision="FP32"/>
			</output>
		</layer>
		<layer id="48" name="4612461621573" type="Const" version="opset1">
			<data offset="96" size="4" shape="" element_type="f32"/>
			<output>
				<port id="0" precision="FP32"/>
			</output>
		</layer>
		<layer id="49" name="4613461721768" type="Const" version="opset1">
			<data offset="100" size="4" shape="" element_type="f32"/>
			<output>
				<port id="0" precision="FP32"/>
			</output>
		</layer>
		<layer id="50" name="4614461820613" type="Const" version="opset1">
			<data offset="96" size="4" shape="" element_type="f32"/>
			<output>
				<port id="0" precision="FP32"/>
			</output>
		</layer>
		<layer id="51" name="4615461921105" type="Const" version="opset1">
			<data offset="100" size="4" shape="" element_type="f32"/>
			<output>
				<port id="0" precision="FP32"/>
			</output>
		</layer>
		<layer id="52" name="4352435621993" type="Const" version="opset1">
			<data offset="104" size="4" shape="" element_type="f32"/>
			<output>
				<port id="0" precision="FP32"/>
			</output>
		</layer>
		<layer id="53" name="4353435720754" type="Const" version="opset1">
			<data offset="108" size="4" shape="" element_type="f32"/>
			<output>
				<port id="0" precision="FP32"/>
			</output>
		</layer>
		<layer id="54" name="4354435821318" type="Const" version="opset1">
			<data offset="104" size="4" shape="" element_type="f32"/>
			<output>
				<port id="0" precision="FP32"/>
			</output>
		</layer>
		<layer id="55" name="4355435921462" type="Const" version="opset1">
			<data offset="108" size="4" shape="" element_type="f32"/>
			<output>
				<port id="0" precision="FP32"/>
			</output>
		</layer>
		<layer id="56" name="4622462622281" type="Const" version="opset1">
			<data offset="112" size="4" shape="" element_type="f32"/>
			<output>
				<port id="0" precision="FP32"/>
			</output>
		</layer>
		<layer id="57" name="4623462722053" type="Const" version="opset1">
			<data offset="116" size="4" shape="" element_type="f32"/>
			<output>
				<port id="0" precision="FP32"/>
			</output>
		</layer>
		<layer id="58" name="4624462821039" type="Const" version="opset1">
			<data offset="112" size="4" shape="" element_type="f32"/>
			<output>
				<port id="0" precision="FP32"/>
			</output>
		</layer>
		<layer id="59" name="4625462920619" type="Const" version="opset1">
			<data offset="116" size="4" shape="" element_type="f32"/>
			<output>
				<port id="0" precision="FP32"/>
			</output>
		</layer>
		<layer id="60" name="5262526621972" type="Const" version="opset1">
			<data offset="120" size="4" shape="" element_type="f32"/>
			<output>
				<port id="0" precision="FP32"/>
			</output>
		</layer>
		<layer id="61" name="5263526722179" type="Const" version="opset1">
			<data offset="124" size="4" shape="" element_type="f32"/>
			<output>
				<port id="0" precision="FP32"/>
			</output>
		</layer>
		<layer id="62" name="5264526821117" type="Const" version="opset1">
			<data offset="120" size="4" shape="" element_type="f32"/>
			<output>
				<port id="0" precision="FP32"/>
			</output>
		</layer>
		<layer id="63" name="5265526922515" type="Const" version="opset1">
			<data offset="124" size="4" shape="" element_type="f32"/>
			<output>
				<port id="0" precision="FP32"/>
			</output>
		</layer>
		<layer id="64" name="4002400622128" type="Const" version="opset1">
			<data offset="128" size="4" shape="" element_type="f32"/>
			<output>
				<port id="0" precision="FP32"/>
			</output>
		</layer>
		<layer id="65" name="4003400722194" type="Const" version="opset1">
			<data offset="132" size="4" shape="" element_type="f32"/>
			<output>
				<port id="0" precision="FP32"/>
			</output>
		</layer>
		<layer id="66" name="4004400820394" type="Const" version="opset1">
			<data offset="128" size="4" shape="" element_type="f32"/>
			<output>
				<port id="0" precision="FP32"/>
			</output>
		</layer>
		<layer id="67" name="4005400922446" type="Const" version="opset1">
			<data offset="132" size="4" shape="" element_type="f32"/>
			<output>
				<port id="0" precision="FP32"/>
			</output>
		</layer>
		<layer id="68" name="5272527622752" type="Const" version="opset1">
			<data offset="136" size="4" shape="" element_type="f32"/>
			<output>
				<port id="0" precision="FP32"/>
			</output>
		</layer>
		<layer id="69" name="5273527722323" type="Const" version="opset1">
			<data offset="140" size="4" shape="" element_type="f32"/>
			<output>
				<port id="0" precision="FP32"/>
			</output>
		</layer>
		<layer id="70" name="5274527821438" type="Const" version="opset1">
			<data offset="136" size="4" shape="" element_type="f32"/>
			<output>
				<port id="0" precision="FP32"/>
			</output>
		</layer>
		<layer id="71" name="5275527920982" type="Const" version="opset1">
			<data offset="140" size="4" shape="" element_type="f32"/>
			<output>
				<port id="0" precision="FP32"/>
			</output>
		</layer>
		<layer id="72" name="3922392620451" type="Const" version="opset1">
			<data offset="144" size="4" shape="" element_type="f32"/>
			<output>
				<port id="0" precision="FP32"/>
			</output>
		</layer>
		<layer id="73" name="3923392722476" type="Const" version="opset1">
			<data offset="148" size="4" shape="" element_type="f32"/>
			<output>
				<port id="0" precision="FP32"/>
			</output>
		</layer>
		<layer id="74" name="3924392821747" type="Const" version="opset1">
			<data offset="144" size="4" shape="" element_type="f32"/>
			<output>
				<port id="0" precision="FP32"/>
			</output>
		</layer>
		<layer id="75" name="3925392921405" type="Const" version="opset1">
			<data offset="148" size="4" shape="" element_type="f32"/>
			<output>
				<port id="0" precision="FP32"/>
			</output>
		</layer>
		<layer id="76" name="4252425620454" type="Const" version="opset1">
			<data offset="152" size="4" shape="" element_type="f32"/>
			<output>
				<port id="0" precision="FP32"/>
			</output>
		</layer>
		<layer id="77" name="4253425721789" type="Const" version="opset1">
			<data offset="156" size="4" shape="" element_type="f32"/>
			<output>
				<port id="0" precision="FP32"/>
			</output>
		</layer>
		<layer id="78" name="4254425821876" type="Const" version="opset1">
			<data offset="152" size="4" shape="" element_type="f32"/>
			<output>
				<port id="0" precision="FP32"/>
			</output>
		</layer>
		<layer id="79" name="4255425921705" type="Const" version="opset1">
			<data offset="156" size="4" shape="" element_type="f32"/>
			<output>
				<port id="0" precision="FP32"/>
			</output>
		</layer>
		<layer id="80" name="7325732922701" type="Const" version="opset1">
			<data offset="160" size="4" shape="" element_type="f32"/>
			<output>
				<port id="0" precision="FP32"/>
			</output>
		</layer>
		<layer id="81" name="7326733021018" type="Const" version="opset1">
			<data offset="164" size="4" shape="" element_type="f32"/>
			<output>
				<port id="0" precision="FP32"/>
			</output>
		</layer>
		<layer id="82" name="7327733122851" type="Const" version="opset1">
			<data offset="160" size="4" shape="" element_type="f32"/>
			<output>
				<port id="0" precision="FP32"/>
			</output>
		</layer>
		<layer id="83" name="7328733221879" type="Const" version="opset1">
			<data offset="164" size="4" shape="" element_type="f32"/>
			<output>
				<port id="0" precision="FP32"/>
			</output>
		</layer>
		<layer id="84" name="4992499621579" type="Const" version="opset1">
			<data offset="168" size="4" shape="" element_type="f32"/>
			<output>
				<port id="0" precision="FP32"/>
			</output>
		</layer>
		<layer id="85" name="4993499722380" type="Const" version="opset1">
			<data offset="172" size="4" shape="" element_type="f32"/>
			<output>
				<port id="0" precision="FP32"/>
			</output>
		</layer>
		<layer id="86" name="4994499821909" type="Const" version="opset1">
			<data offset="168" size="4" shape="" element_type="f32"/>
			<output>
				<port id="0" precision="FP32"/>
			</output>
		</layer>
		<layer id="87" name="4995499921873" type="Const" version="opset1">
			<data offset="172" size="4" shape="" element_type="f32"/>
			<output>
				<port id="0" precision="FP32"/>
			</output>
		</layer>
		<layer id="88" name="4312431622692" type="Const" version="opset1">
			<data offset="176" size="4" shape="" element_type="f32"/>
			<output>
				<port id="0" precision="FP32"/>
			</output>
		</layer>
		<layer id="89" name="4313431722644" type="Const" version="opset1">
			<data offset="180" size="4" shape="" element_type="f32"/>
			<output>
				<port id="0" precision="FP32"/>
			</output>
		</layer>
		<layer id="90" name="4314431822719" type="Const" version="opset1">
			<data offset="176" size="4" shape="" element_type="f32"/>
			<output>
				<port id="0" precision="FP32"/>
			</output>
		</layer>
		<layer id="91" name="4315431922425" type="Const" version="opset1">
			<data offset="180" size="4" shape="" element_type="f32"/>
			<output>
				<port id="0" precision="FP32"/>
			</output>
		</layer>
		<layer id="92" name="5002500620412" type="Const" version="opset1">
			<data offset="184" size="4" shape="" element_type="f32"/>
			<output>
				<port id="0" precision="FP32"/>
			</output>
		</layer>
		<layer id="93" name="5003500720700" type="Const" version="opset1">
			<data offset="188" size="4" shape="" element_type="f32"/>
			<output>
				<port id="0" precision="FP32"/>
			</output>
		</layer>
		<layer id="94" name="5004500821237" type="Const" version="opset1">
			<data offset="184" size="4" shape="" element_type="f32"/>
			<output>
				<port id="0" precision="FP32"/>
			</output>
		</layer>
		<layer id="95" name="5005500922239" type="Const" version="opset1">
			<data offset="188" size="4" shape="" element_type="f32"/>
			<output>
				<port id="0" precision="FP32"/>
			</output>
		</layer>
		<layer id="96" name="4532453621216" type="Const" version="opset1">
			<data offset="192" size="4" shape="" element_type="f32"/>
			<output>
				<port id="0" precision="FP32"/>
			</output>
		</layer>
		<layer id="97" name="4533453721546" type="Const" version="opset1">
			<data offset="196" size="4" shape="" element_type="f32"/>
			<output>
				<port id="0" precision="FP32"/>
			</output>
		</layer>
		<layer id="98" name="4534453822443" type="Const" version="opset1">
			<data offset="192" size="4" shape="" element_type="f32"/>
			<output>
				<port id="0" precision="FP32"/>
			</output>
		</layer>
		<layer id="99" name="4535453920562" type="Const" version="opset1">
			<data offset="196" size="4" shape="" element_type="f32"/>
			<output>
				<port id="0" precision="FP32"/>
			</output>
		</layer>
		<layer id="100" name="5322532622473" type="Const" version="opset1">
			<data offset="200" size="4" shape="" element_type="f32"/>
			<output>
				<port id="0" precision="FP32"/>
			</output>
		</layer>
		<layer id="101" name="5323532722299" type="Const" version="opset1">
			<data offset="204" size="4" shape="" element_type="f32"/>
			<output>
				<port id="0" precision="FP32"/>
			</output>
		</layer>
		<layer id="102" name="5324532820676" type="Const" version="opset1">
			<data offset="200" size="4" shape="" element_type="f32"/>
			<output>
				<port id="0" precision="FP32"/>
			</output>
		</layer>
		<layer id="103" name="5325532922674" type="Const" version="opset1">
			<data offset="204" size="4" shape="" element_type="f32"/>
			<output>
				<port id="0" precision="FP32"/>
			</output>
		</layer>
		<layer id="104" name="7315731922635" type="Const" version="opset1">
			<data offset="208" size="4" shape="" element_type="f32"/>
			<output>
				<port id="0" precision="FP32"/>
			</output>
		</layer>
		<layer id="105" name="7316732020889" type="Const" version="opset1">
			<data offset="212" size="4" shape="" element_type="f32"/>
			<output>
				<port id="0" precision="FP32"/>
			</output>
		</layer>
		<layer id="106" name="7317732121567" type="Const" version="opset1">
			<data offset="208" size="4" shape="" element_type="f32"/>
			<output>
				<port id="0" precision="FP32"/>
			</output>
		</layer>
		<layer id="107" name="7318732220865" type="Const" version="opset1">
			<data offset="212" size="4" shape="" element_type="f32"/>
			<output>
				<port id="0" precision="FP32"/>
			</output>
		</layer>
		<layer id="108" name="4632463622518" type="Const" version="opset1">
			<data offset="216" size="4" shape="" element_type="f32"/>
			<output>
				<port id="0" precision="FP32"/>
			</output>
		</layer>
		<layer id="109" name="4633463720304" type="Const" version="opset1">
			<data offset="220" size="4" shape="" element_type="f32"/>
			<output>
				<port id="0" precision="FP32"/>
			</output>
		</layer>
		<layer id="110" name="4634463822368" type="Const" version="opset1">
			<data offset="216" size="4" shape="" element_type="f32"/>
			<output>
				<port id="0" precision="FP32"/>
			</output>
		</layer>
		<layer id="111" name="4635463920622" type="Const" version="opset1">
			<data offset="220" size="4" shape="" element_type="f32"/>
			<output>
				<port id="0" precision="FP32"/>
			</output>
		</layer>
		<layer id="113" name="Constant_39256104622026" type="Const" version="opset1">
			<data offset="224" size="12" shape="1,3,1,1" element_type="f32"/>
			<output>
				<port id="0" precision="FP32">
					<dim>1</dim>
					<dim>3</dim>
					<dim>1</dim>
					<dim>1</dim>
				</port>
			</output>
		</layer>
		<layer id="114" name="Subtract_39257" type="Subtract" version="opset1">
			<data auto_broadcast="numpy"/>
			<rt_info>
				<attribute name="preprocessing" version="0"/>
			</rt_info>
			<input>
				<port id="0">
					<dim>-1</dim>
					<dim>3</dim>
					<dim>416</dim>
					<dim>416</dim>
				</port>
				<port id="1">
					<dim>1</dim>
					<dim>3</dim>
					<dim>1</dim>
					<dim>1</dim>
				</port>
			</input>
			<output>
				<port id="2" precision="FP32">
					<dim>-1</dim>
					<dim>3</dim>
					<dim>416</dim>
					<dim>416</dim>
				</port>
			</output>
		</layer>
		<layer id="115" name="Divide_39259/fq_input_0" type="FakeQuantize" version="opset1">
			<data levels="256" auto_broadcast="numpy"/>
			<input>
				<port id="0">
					<dim>-1</dim>
					<dim>3</dim>
					<dim>416</dim>
					<dim>416</dim>
				</port>
				<port id="1"/>
				<port id="2"/>
				<port id="3"/>
				<port id="4"/>
			</input>
			<output>
				<port id="5" precision="FP32">
					<dim>-1</dim>
					<dim>3</dim>
					<dim>416</dim>
					<dim>416</dim>
				</port>
			</output>
		</layer>
		<layer id="116" name="Divide_39259/fq_weights_1/scale1365020469" type="Const" version="opset1">
			<data offset="236" size="4" shape="1,1,1,1" element_type="f32"/>
			<output>
				<port id="0" precision="FP32">
					<dim>1</dim>
					<dim>1</dim>
					<dim>1</dim>
					<dim>1</dim>
				</port>
			</output>
		</layer>
		<layer id="117" name="Constant_86978104811935/quantized1364221183" type="Const" version="opset1">
			<data offset="240" size="3" shape="1,3,1,1" element_type="i8"/>
			<output>
				<port id="0" precision="I8">
					<dim>1</dim>
					<dim>3</dim>
					<dim>1</dim>
					<dim>1</dim>
				</port>
			</output>
		</layer>
		<layer id="118" name="Constant_86978104811935/quantized/to_f32" type="Convert" version="opset1">
			<data destination_type="f32"/>
			<input>
				<port id="0">
					<dim>1</dim>
					<dim>3</dim>
					<dim>1</dim>
					<dim>1</dim>
				</port>
			</input>
			<output>
				<port id="1" precision="FP32">
					<dim>1</dim>
					<dim>3</dim>
					<dim>1</dim>
					<dim>1</dim>
				</port>
			</output>
		</layer>
		<layer id="119" name="Divide_39259/fq_weights_1/mulpiply_by_scale" type="Multiply" version="opset1">
			<data auto_broadcast="numpy"/>
			<input>
				<port id="0">
					<dim>1</dim>
					<dim>3</dim>
					<dim>1</dim>
					<dim>1</dim>
				</port>
				<port id="1">
					<dim>1</dim>
					<dim>1</dim>
					<dim>1</dim>
					<dim>1</dim>
				</port>
			</input>
			<output>
				<port id="2" precision="FP32">
					<dim>1</dim>
					<dim>3</dim>
					<dim>1</dim>
					<dim>1</dim>
				</port>
			</output>
		</layer>
		<layer id="120" name="Divide_39259" type="Multiply" version="opset1">
			<data auto_broadcast="numpy"/>
			<rt_info>
				<attribute name="preprocessing" version="0"/>
			</rt_info>
			<input>
				<port id="0">
					<dim>-1</dim>
					<dim>3</dim>
					<dim>416</dim>
					<dim>416</dim>
				</port>
				<port id="1">
					<dim>1</dim>
					<dim>3</dim>
					<dim>1</dim>
					<dim>1</dim>
				</port>
			</input>
			<output>
				<port id="2" precision="FP32">
					<dim>-1</dim>
					<dim>3</dim>
					<dim>416</dim>
					<dim>416</dim>
				</port>
			</output>
		</layer>
		<layer id="121" name="Reshape_52/fq_input_0" type="FakeQuantize" version="opset1">
			<data levels="256" auto_broadcast="numpy"/>
			<input>
				<port id="0">
					<dim>-1</dim>
					<dim>3</dim>
					<dim>416</dim>
					<dim>416</dim>
				</port>
				<port id="1"/>
				<port id="2"/>
				<port id="3"/>
				<port id="4"/>
			</input>
			<output>
				<port id="5" precision="FP32">
					<dim>-1</dim>
					<dim>3</dim>
					<dim>416</dim>
					<dim>416</dim>
				</port>
			</output>
		</layer>
		<layer id="122" name="Constant_79467105020298" type="Const" version="opset1">
			<data offset="243" size="16" shape="2" element_type="i64"/>
			<output>
				<port id="0" precision="I64">
					<dim>2</dim>
				</port>
			</output>
		</layer>
		<layer id="123" name="onnx::Concat_1610105121591" type="Const" version="opset1">
			<data offset="259" size="8" shape="1" element_type="i64"/>
			<output>
				<port id="0" precision="I64" names="onnx::Concat_1607,onnx::Concat_1610,onnx::Concat_1626,onnx::Concat_1628,onnx::Concat_1630,onnx::Concat_1632,onnx::Concat_1634,onnx::Concat_1636,onnx::Concat_1638,onnx::Concat_1639,onnx::Concat_1640,onnx::Reshape_1641,onnx::Reshape_1653">
					<dim>1</dim>
				</port>
			</output>
		</layer>
		<layer id="124" name="onnx::Concat_1609105222779" type="Const" version="opset1">
			<data offset="267" size="8" shape="1" element_type="i64"/>
			<output>
				<port id="0" precision="I64" names="onnx::Concat_1608,onnx::Concat_1609,onnx::Concat_1611">
					<dim>1</dim>
				</port>
			</output>
		</layer>
		<layer id="125" name="Shape_39" type="ShapeOf" version="opset3">
			<data output_type="i64"/>
			<input>
				<port id="0">
					<dim>-1</dim>
					<dim>3</dim>
					<dim>416</dim>
					<dim>416</dim>
				</port>
			</input>
			<output>
				<port id="1" precision="I64" names="onnx::Gather_463,onnx::Gather_466,onnx::Gather_469">
					<dim>4</dim>
				</port>
			</output>
		</layer>
		<layer id="126" name="Constant_755491054" type="Const" version="opset1">
			<data offset="275" size="4" shape="1" element_type="i32"/>
			<output>
				<port id="0" precision="I32">
					<dim>1</dim>
				</port>
			</output>
		</layer>
		<layer id="127" name="Constant_1851055" type="Const" version="opset1">
			<data offset="279" size="8" shape="" element_type="i64"/>
			<output>
				<port id="0" precision="I64"/>
			</output>
		</layer>
		<layer id="128" name="Gather_47" type="Gather" version="opset8">
			<data batch_dims="0"/>
			<input>
				<port id="0">
					<dim>4</dim>
				</port>
				<port id="1">
					<dim>1</dim>
				</port>
				<port id="2"/>
			</input>
			<output>
				<port id="3" precision="I64" names="onnx::Concat_478">
					<dim>1</dim>
				</port>
			</output>
		</layer>
		<layer id="129" name="Concat_51" type="Concat" version="opset1">
			<data axis="0"/>
			<input>
				<port id="0">
					<dim>2</dim>
				</port>
				<port id="1">
					<dim>1</dim>
				</port>
				<port id="2">
					<dim>1</dim>
				</port>
				<port id="3">
					<dim>1</dim>
				</port>
			</input>
			<output>
				<port id="4" precision="I64">
					<dim>5</dim>
				</port>
			</output>
		</layer>
		<layer id="130" name="Reshape_52" type="Reshape" version="opset1">
			<data special_zero="true"/>
			<input>
				<port id="0">
					<dim>-1</dim>
					<dim>3</dim>
					<dim>416</dim>
					<dim>416</dim>
				</port>
				<port id="1">
					<dim>5</dim>
				</port>
			</input>
			<output>
				<port id="2" precision="FP32" names="onnx::Shape_480">
					<dim>-1</dim>
					<dim>3</dim>
					<dim>208</dim>
					<dim>2</dim>
					<dim>416</dim>
				</port>
			</output>
		</layer>
		<layer id="131" name="Constant_757821059" type="Const" version="opset1">
			<data offset="287" size="8" shape="2" element_type="i32"/>
			<output>
				<port id="0" precision="I32">
					<dim>2</dim>
				</port>
			</output>
		</layer>
		<layer id="132" name="Constant_757831060" type="Const" version="opset1">
			<data offset="279" size="8" shape="" element_type="i64"/>
			<output>
				<port id="0" precision="I64"/>
			</output>
		</layer>
		<layer id="133" name="Gather_75784" type="Gather" version="opset8">
			<data batch_dims="0"/>
			<input>
				<port id="0">
					<dim>4</dim>
				</port>
				<port id="1">
					<dim>2</dim>
				</port>
				<port id="2"/>
			</input>
			<output>
				<port id="3" precision="I64">
					<dim>2</dim>
				</port>
			</output>
		</layer>
		<layer id="134" name="Constant_79533106220910" type="Const" version="opset1">
			<data offset="279" size="8" shape="1" element_type="i64"/>
			<output>
				<port id="0" precision="I64">
					<dim>1</dim>
				</port>
			</output>
		</layer>
		<layer id="135" name="Concat_59" type="Concat" version="opset1">
			<data axis="0"/>
			<input>
				<port id="0">
					<dim>2</dim>
				</port>
				<port id="1">
					<dim>1</dim>
				</port>
				<port id="2">
					<dim>1</dim>
				</port>
				<port id="3">
					<dim>1</dim>
				</port>
				<port id="4">
					<dim>1</dim>
				</port>
			</input>
			<output>
				<port id="5" precision="I64">
					<dim>6</dim>
				</port>
			</output>
		</layer>
		<layer id="136" name="Reshape_60" type="Reshape" version="opset1">
			<data special_zero="true"/>
			<input>
				<port id="0">
					<dim>-1</dim>
					<dim>3</dim>
					<dim>208</dim>
					<dim>2</dim>
					<dim>416</dim>
				</port>
				<port id="1">
					<dim>6</dim>
				</port>
			</input>
			<output>
				<port id="2" precision="FP32" names="onnx::Shape_494">
					<dim>-1</dim>
					<dim>3</dim>
					<dim>208</dim>
					<dim>2</dim>
					<dim>-1</dim>
					<dim>2</dim>
				</port>
			</output>
		</layer>
		<layer id="137" name="Constant_5461065" type="Const" version="opset1">
			<data offset="295" size="48" shape="6" element_type="i64"/>
			<output>
				<port id="0" precision="I64">
					<dim>6</dim>
				</port>
			</output>
		</layer>
		<layer id="138" name="Transpose_67" type="Transpose" version="opset1">
			<input>
				<port id="0">
					<dim>-1</dim>
					<dim>3</dim>
					<dim>208</dim>
					<dim>2</dim>
					<dim>-1</dim>
					<dim>2</dim>
				</port>
				<port id="1">
					<dim>6</dim>
				</port>
			</input>
			<output>
				<port id="2" precision="FP32" names="onnx::Reshape_501">
					<dim>-1</dim>
					<dim>2</dim>
					<dim>2</dim>
					<dim>3</dim>
					<dim>208</dim>
					<dim>-1</dim>
				</port>
			</output>
		</layer>
		<layer id="139" name="Constant_755851067" type="Const" version="opset1">
			<data offset="343" size="4" shape="1" element_type="i32"/>
			<output>
				<port id="0" precision="I32">
					<dim>1</dim>
				</port>
			</output>
		</layer>
		<layer id="140" name="Constant_1771068" type="Const" version="opset1">
			<data offset="279" size="8" shape="" element_type="i64"/>
			<output>
				<port id="0" precision="I64"/>
			</output>
		</layer>
		<layer id="141" name="Gather_41" type="Gather" version="opset8">
			<data batch_dims="0"/>
			<input>
				<port id="0">
					<dim>4</dim>
				</port>
				<port id="1">
					<dim>1</dim>
				</port>
				<port id="2"/>
			</input>
			<output>
				<port id="3" precision="I64" names="onnx::Concat_504">
					<dim>1</dim>
				</port>
			</output>
		</layer>
		<layer id="142" name="Constant_431070" type="Const" version="opset1">
			<data offset="347" size="4" shape="" element_type="i32"/>
			<output>
				<port id="0" precision="I32" names="onnx::Gather_467"/>
			</output>
		</layer>
		<layer id="143" name="Constant_1811071" type="Const" version="opset1">
			<data offset="279" size="8" shape="" element_type="i64"/>
			<output>
				<port id="0" precision="I64"/>
			</output>
		</layer>
		<layer id="144" name="Gather_44" type="Gather" version="opset8">
			<data batch_dims="0"/>
			<input>
				<port id="0">
					<dim>4</dim>
				</port>
				<port id="1"/>
				<port id="2"/>
			</input>
			<output>
				<port id="3" precision="I64" names="onnx::Unsqueeze_468"/>
			</output>
		</layer>
		<layer id="145" name="Constant_68107322308" type="Const" version="opset1">
			<data offset="351" size="8" shape="" element_type="i64"/>
			<output>
				<port id="0" precision="I64" names="onnx::Mul_502"/>
			</output>
		</layer>
		<layer id="146" name="Mul_69" type="Multiply" version="opset1">
			<data auto_broadcast="numpy"/>
			<input>
				<port id="0"/>
				<port id="1"/>
			</input>
			<output>
				<port id="2" precision="I64" names="onnx::Unsqueeze_503"/>
			</output>
		</layer>
		<layer id="147" name="Constant_552107522170" type="Const" version="opset1">
			<data offset="279" size="8" shape="1" element_type="i64"/>
			<output>
				<port id="0" precision="I64">
					<dim>1</dim>
				</port>
			</output>
		</layer>
		<layer id="148" name="Unsqueeze_71" type="Unsqueeze" version="opset1">
			<input>
				<port id="0"/>
				<port id="1">
					<dim>1</dim>
				</port>
			</input>
			<output>
				<port id="2" precision="I64" names="onnx::Concat_505">
					<dim>1</dim>
				</port>
			</output>
		</layer>
		<layer id="149" name="Shape_61" type="ShapeOf" version="opset3">
			<data output_type="i64"/>
			<input>
				<port id="0">
					<dim>-1</dim>
					<dim>3</dim>
					<dim>208</dim>
					<dim>2</dim>
					<dim>-1</dim>
					<dim>2</dim>
				</port>
			</input>
			<output>
				<port id="1" precision="I64" names="onnx::Gather_495,onnx::Gather_498">
					<dim>6</dim>
				</port>
			</output>
		</layer>
		<layer id="150" name="Constant_757871078" type="Const" version="opset1">
			<data offset="359" size="8" shape="2" element_type="i32"/>
			<output>
				<port id="0" precision="I32">
					<dim>2</dim>
				</port>
			</output>
		</layer>
		<layer id="151" name="Constant_757881079" type="Const" version="opset1">
			<data offset="279" size="8" shape="" element_type="i64"/>
			<output>
				<port id="0" precision="I64"/>
			</output>
		</layer>
		<layer id="152" name="Gather_75789" type="Gather" version="opset8">
			<data batch_dims="0"/>
			<input>
				<port id="0">
					<dim>6</dim>
				</port>
				<port id="1">
					<dim>2</dim>
				</port>
				<port id="2"/>
			</input>
			<output>
				<port id="3" precision="I64">
					<dim>2</dim>
				</port>
			</output>
		</layer>
		<layer id="153" name="Concat_74" type="Concat" version="opset1">
			<data axis="0"/>
			<input>
				<port id="0">
					<dim>1</dim>
				</port>
				<port id="1">
					<dim>1</dim>
				</port>
				<port id="2">
					<dim>2</dim>
				</port>
			</input>
			<output>
				<port id="3" precision="I64" names="onnx::Reshape_508">
					<dim>4</dim>
				</port>
			</output>
		</layer>
		<layer id="154" name="Reshape_75" type="Reshape" version="opset1">
			<data special_zero="true"/>
			<input>
				<port id="0">
					<dim>-1</dim>
					<dim>2</dim>
					<dim>2</dim>
					<dim>3</dim>
					<dim>208</dim>
					<dim>-1</dim>
				</port>
				<port id="1">
					<dim>4</dim>
				</port>
			</input>
			<output>
				<port id="2" precision="FP32" names="input">
					<dim>-1</dim>
					<dim>12</dim>
					<dim>208</dim>
					<dim>-1</dim>
				</port>
			</output>
		</layer>
		<layer id="155" name="Conv_76/WithoutBiases/fq_weights_1/scale1389020367" type="Const" version="opset1">
			<data offset="367" size="96" shape="24,1,1,1" element_type="f32"/>
			<output>
				<port id="0" precision="FP32">
					<dim>24</dim>
					<dim>1</dim>
					<dim>1</dim>
					<dim>1</dim>
				</port>
			</output>
		</layer>
		<layer id="156" name="onnx::Conv_1386108311953/quantized1388222869" type="Const" version="opset1">
			<data offset="463" size="2592" shape="24,12,3,3" element_type="i8"/>
			<output>
				<port id="0" precision="I8">
					<dim>24</dim>
					<dim>12</dim>
					<dim>3</dim>
					<dim>3</dim>
				</port>
			</output>
		</layer>
		<layer id="157" name="onnx::Conv_1386108311953/quantized/to_f32" type="Convert" version="opset1">
			<data destination_type="f32"/>
			<input>
				<port id="0">
					<dim>24</dim>
					<dim>12</dim>
					<dim>3</dim>
					<dim>3</dim>
				</port>
			</input>
			<output>
				<port id="1" precision="FP32">
					<dim>24</dim>
					<dim>12</dim>
					<dim>3</dim>
					<dim>3</dim>
				</port>
			</output>
		</layer>
		<layer id="158" name="Conv_76/WithoutBiases/fq_weights_1/mulpiply_by_scale" type="Multiply" version="opset1">
			<data auto_broadcast="numpy"/>
			<input>
				<port id="0">
					<dim>24</dim>
					<dim>12</dim>
					<dim>3</dim>
					<dim>3</dim>
				</port>
				<port id="1">
					<dim>24</dim>
					<dim>1</dim>
					<dim>1</dim>
					<dim>1</dim>
				</port>
			</input>
			<output>
				<port id="2" precision="FP32">
					<dim>24</dim>
					<dim>12</dim>
					<dim>3</dim>
					<dim>3</dim>
				</port>
			</output>
		</layer>
		<layer id="159" name="Conv_76/WithoutBiases" type="Convolution" version="opset1">
			<data auto_pad="explicit" strides="1,1" dilations="1,1" pads_begin="1,1" pads_end="1,1"/>
			<input>
				<port id="0">
					<dim>-1</dim>
					<dim>12</dim>
					<dim>208</dim>
					<dim>-1</dim>
				</port>
				<port id="1">
					<dim>24</dim>
					<dim>12</dim>
					<dim>3</dim>
					<dim>3</dim>
				</port>
			</input>
			<output>
				<port id="2" precision="FP32">
					<dim>-1</dim>
					<dim>24</dim>
					<dim>208</dim>
					<dim>-1</dim>
				</port>
			</output>
		</layer>
		<layer id="160" name="Reshape_805108521420" type="Const" version="opset1">
			<data offset="3055" size="96" shape="1,24,1,1" element_type="f32"/>
			<output>
				<port id="0" precision="FP32">
					<dim>1</dim>
					<dim>24</dim>
					<dim>1</dim>
					<dim>1</dim>
				</port>
			</output>
		</layer>
		<layer id="161" name="Conv_76" type="Add" version="opset1">
			<data auto_broadcast="numpy"/>
			<input>
				<port id="0">
					<dim>-1</dim>
					<dim>24</dim>
					<dim>208</dim>
					<dim>-1</dim>
				</port>
				<port id="1">
					<dim>1</dim>
					<dim>24</dim>
					<dim>1</dim>
					<dim>1</dim>
				</port>
			</input>
			<output>
				<port id="2" precision="FP32" names="x">
					<dim>-1</dim>
					<dim>24</dim>
					<dim>208</dim>
					<dim>-1</dim>
				</port>
			</output>
		</layer>
		<layer id="162" name="Mul_78" type="Swish" version="opset4">
			<input>
				<port id="0">
					<dim>-1</dim>
					<dim>24</dim>
					<dim>208</dim>
					<dim>-1</dim>
				</port>
			</input>
			<output>
				<port id="1" precision="FP32" names="input.7">
					<dim>-1</dim>
					<dim>24</dim>
					<dim>208</dim>
					<dim>-1</dim>
				</port>
			</output>
		</layer>
		<layer id="163" name="Conv_79/WithoutBiases/fq_input_0" type="FakeQuantize" version="opset1">
			<data levels="256" auto_broadcast="numpy"/>
			<input>
				<port id="0">
					<dim>-1</dim>
					<dim>24</dim>
					<dim>208</dim>
					<dim>-1</dim>
				</port>
				<port id="1"/>
				<port id="2"/>
				<port id="3"/>
				<port id="4"/>
			</input>
			<output>
				<port id="5" precision="FP32">
					<dim>-1</dim>
					<dim>24</dim>
					<dim>208</dim>
					<dim>-1</dim>
				</port>
			</output>
		</layer>
		<layer id="164" name="Conv_79/WithoutBiases/fq_weights_1/scale1506022773" type="Const" version="opset1">
			<data offset="3151" size="192" shape="48,1,1,1" element_type="f32"/>
			<output>
				<port id="0" precision="FP32">
					<dim>48</dim>
					<dim>1</dim>
					<dim>1</dim>
					<dim>1</dim>
				</port>
			</output>
		</layer>
		<layer id="165" name="onnx::Conv_1389108811955/quantized1505220316" type="Const" version="opset1">
			<data offset="3343" size="10368" shape="48,24,3,3" element_type="i8"/>
			<output>
				<port id="0" precision="I8">
					<dim>48</dim>
					<dim>24</dim>
					<dim>3</dim>
					<dim>3</dim>
				</port>
			</output>
		</layer>
		<layer id="166" name="onnx::Conv_1389108811955/quantized/to_f32" type="Convert" version="opset1">
			<data destination_type="f32"/>
			<input>
				<port id="0">
					<dim>48</dim>
					<dim>24</dim>
					<dim>3</dim>
					<dim>3</dim>
				</port>
			</input>
			<output>
				<port id="1" precision="FP32">
					<dim>48</dim>
					<dim>24</dim>
					<dim>3</dim>
					<dim>3</dim>
				</port>
			</output>
		</layer>
		<layer id="167" name="Conv_79/WithoutBiases/fq_weights_1/mulpiply_by_scale" type="Multiply" version="opset1">
			<data auto_broadcast="numpy"/>
			<input>
				<port id="0">
					<dim>48</dim>
					<dim>24</dim>
					<dim>3</dim>
					<dim>3</dim>
				</port>
				<port id="1">
					<dim>48</dim>
					<dim>1</dim>
					<dim>1</dim>
					<dim>1</dim>
				</port>
			</input>
			<output>
				<port id="2" precision="FP32">
					<dim>48</dim>
					<dim>24</dim>
					<dim>3</dim>
					<dim>3</dim>
				</port>
			</output>
		</layer>
		<layer id="168" name="Conv_79/WithoutBiases" type="Convolution" version="opset1">
			<data auto_pad="explicit" strides="2,2" dilations="1,1" pads_begin="1,1" pads_end="1,1"/>
			<input>
				<port id="0">
					<dim>-1</dim>
					<dim>24</dim>
					<dim>208</dim>
					<dim>-1</dim>
				</port>
				<port id="1">
					<dim>48</dim>
					<dim>24</dim>
					<dim>3</dim>
					<dim>3</dim>
				</port>
			</input>
			<output>
				<port id="2" precision="FP32">
					<dim>-1</dim>
					<dim>48</dim>
					<dim>104</dim>
					<dim>-1</dim>
				</port>
			</output>
		</layer>
		<layer id="169" name="Reshape_855109020463" type="Const" version="opset1">
			<data offset="13711" size="192" shape="1,48,1,1" element_type="f32"/>
			<output>
				<port id="0" precision="FP32">
					<dim>1</dim>
					<dim>48</dim>
					<dim>1</dim>
					<dim>1</dim>
				</port>
			</output>
		</layer>
		<layer id="170" name="Conv_79" type="Add" version="opset1">
			<data auto_broadcast="numpy"/>
			<input>
				<port id="0">
					<dim>-1</dim>
					<dim>48</dim>
					<dim>104</dim>
					<dim>-1</dim>
				</port>
				<port id="1">
					<dim>1</dim>
					<dim>48</dim>
					<dim>1</dim>
					<dim>1</dim>
				</port>
			</input>
			<output>
				<port id="2" precision="FP32" names="x.3">
					<dim>-1</dim>
					<dim>48</dim>
					<dim>104</dim>
					<dim>-1</dim>
				</port>
			</output>
		</layer>
		<layer id="171" name="Mul_81" type="Swish" version="opset4">
			<input>
				<port id="0">
					<dim>-1</dim>
					<dim>48</dim>
					<dim>104</dim>
					<dim>-1</dim>
				</port>
			</input>
			<output>
				<port id="1" precision="FP32" names="input.15">
					<dim>-1</dim>
					<dim>48</dim>
					<dim>104</dim>
					<dim>-1</dim>
				</port>
			</output>
		</layer>
		<layer id="172" name="Conv_82/WithoutBiases/fq_input_0" type="FakeQuantize" version="opset1">
			<data levels="256" auto_broadcast="numpy"/>
			<input>
				<port id="0">
					<dim>-1</dim>
					<dim>48</dim>
					<dim>104</dim>
					<dim>-1</dim>
				</port>
				<port id="1"/>
				<port id="2"/>
				<port id="3"/>
				<port id="4"/>
			</input>
			<output>
				<port id="5" precision="FP32">
					<dim>-1</dim>
					<dim>48</dim>
					<dim>104</dim>
					<dim>-1</dim>
				</port>
			</output>
		</layer>
		<layer id="173" name="Conv_85/WithoutBiases/fq_weights_1/scale1479020541" type="Const" version="opset1">
			<data offset="13903" size="96" shape="24,1,1,1" element_type="f32"/>
			<output>
				<port id="0" precision="FP32">
					<dim>24</dim>
					<dim>1</dim>
					<dim>1</dim>
					<dim>1</dim>
				</port>
			</output>
		</layer>
		<layer id="174" name="onnx::Conv_1395109311957/quantized1478220859" type="Const" version="opset1">
			<data offset="13999" size="1152" shape="24,48,1,1" element_type="i8"/>
			<output>
				<port id="0" precision="I8">
					<dim>24</dim>
					<dim>48</dim>
					<dim>1</dim>
					<dim>1</dim>
				</port>
			</output>
		</layer>
		<layer id="175" name="onnx::Conv_1395109311957/quantized/to_f32" type="Convert" version="opset1">
			<data destination_type="f32"/>
			<input>
				<port id="0">
					<dim>24</dim>
					<dim>48</dim>
					<dim>1</dim>
					<dim>1</dim>
				</port>
			</input>
			<output>
				<port id="1" precision="FP32">
					<dim>24</dim>
					<dim>48</dim>
					<dim>1</dim>
					<dim>1</dim>
				</port>
			</output>
		</layer>
		<layer id="176" name="Conv_85/WithoutBiases/fq_weights_1/mulpiply_by_scale" type="Multiply" version="opset1">
			<data auto_broadcast="numpy"/>
			<input>
				<port id="0">
					<dim>24</dim>
					<dim>48</dim>
					<dim>1</dim>
					<dim>1</dim>
				</port>
				<port id="1">
					<dim>24</dim>
					<dim>1</dim>
					<dim>1</dim>
					<dim>1</dim>
				</port>
			</input>
			<output>
				<port id="2" precision="FP32">
					<dim>24</dim>
					<dim>48</dim>
					<dim>1</dim>
					<dim>1</dim>
				</port>
			</output>
		</layer>
		<layer id="177" name="Conv_85/WithoutBiases" type="Convolution" version="opset1">
			<data auto_pad="explicit" strides="1,1" dilations="1,1" pads_begin="0,0" pads_end="0,0"/>
			<input>
				<port id="0">
					<dim>-1</dim>
					<dim>48</dim>
					<dim>104</dim>
					<dim>-1</dim>
				</port>
				<port id="1">
					<dim>24</dim>
					<dim>48</dim>
					<dim>1</dim>
					<dim>1</dim>
				</port>
			</input>
			<output>
				<port id="2" precision="FP32">
					<dim>-1</dim>
					<dim>24</dim>
					<dim>104</dim>
					<dim>-1</dim>
				</port>
			</output>
		</layer>
		<layer id="178" name="Reshape_955109520760" type="Const" version="opset1">
			<data offset="15151" size="96" shape="1,24,1,1" element_type="f32"/>
			<output>
				<port id="0" precision="FP32">
					<dim>1</dim>
					<dim>24</dim>
					<dim>1</dim>
					<dim>1</dim>
				</port>
			</output>
		</layer>
		<layer id="179" name="Conv_85" type="Add" version="opset1">
			<data auto_broadcast="numpy"/>
			<input>
				<port id="0">
					<dim>-1</dim>
					<dim>24</dim>
					<dim>104</dim>
					<dim>-1</dim>
				</port>
				<port id="1">
					<dim>1</dim>
					<dim>24</dim>
					<dim>1</dim>
					<dim>1</dim>
				</port>
			</input>
			<output>
				<port id="2" precision="FP32" names="x.11">
					<dim>-1</dim>
					<dim>24</dim>
					<dim>104</dim>
					<dim>-1</dim>
				</port>
			</output>
		</layer>
		<layer id="180" name="Mul_87" type="Swish" version="opset4">
			<input>
				<port id="0">
					<dim>-1</dim>
					<dim>24</dim>
					<dim>104</dim>
					<dim>-1</dim>
				</port>
			</input>
			<output>
				<port id="1" precision="FP32" names="input.27">
					<dim>-1</dim>
					<dim>24</dim>
					<dim>104</dim>
					<dim>-1</dim>
				</port>
			</output>
		</layer>
		<layer id="181" name="Add_94/fq_input_1" type="FakeQuantize" version="opset1">
			<data levels="256" auto_broadcast="numpy"/>
			<input>
				<port id="0">
					<dim>-1</dim>
					<dim>24</dim>
					<dim>104</dim>
					<dim>-1</dim>
				</port>
				<port id="1"/>
				<port id="2"/>
				<port id="3"/>
				<port id="4"/>
			</input>
			<output>
				<port id="5" precision="FP32">
					<dim>-1</dim>
					<dim>24</dim>
					<dim>104</dim>
					<dim>-1</dim>
				</port>
			</output>
		</layer>
		<layer id="182" name="Conv_88/WithoutBiases/fq_weights_1/scale1410022275" type="Const" version="opset1">
			<data offset="15247" size="96" shape="24,1,1,1" element_type="f32"/>
			<output>
				<port id="0" precision="FP32">
					<dim>24</dim>
					<dim>1</dim>
					<dim>1</dim>
					<dim>1</dim>
				</port>
			</output>
		</layer>
		<layer id="183" name="onnx::Conv_1398109811959/quantized1409221165" type="Const" version="opset1">
			<data offset="15343" size="576" shape="24,24,1,1" element_type="i8"/>
			<output>
				<port id="0" precision="I8">
					<dim>24</dim>
					<dim>24</dim>
					<dim>1</dim>
					<dim>1</dim>
				</port>
			</output>
		</layer>
		<layer id="184" name="onnx::Conv_1398109811959/quantized/to_f32" type="Convert" version="opset1">
			<data destination_type="f32"/>
			<input>
				<port id="0">
					<dim>24</dim>
					<dim>24</dim>
					<dim>1</dim>
					<dim>1</dim>
				</port>
			</input>
			<output>
				<port id="1" precision="FP32">
					<dim>24</dim>
					<dim>24</dim>
					<dim>1</dim>
					<dim>1</dim>
				</port>
			</output>
		</layer>
		<layer id="185" name="Conv_88/WithoutBiases/fq_weights_1/mulpiply_by_scale" type="Multiply" version="opset1">
			<data auto_broadcast="numpy"/>
			<input>
				<port id="0">
					<dim>24</dim>
					<dim>24</dim>
					<dim>1</dim>
					<dim>1</dim>
				</port>
				<port id="1">
					<dim>24</dim>
					<dim>1</dim>
					<dim>1</dim>
					<dim>1</dim>
				</port>
			</input>
			<output>
				<port id="2" precision="FP32">
					<dim>24</dim>
					<dim>24</dim>
					<dim>1</dim>
					<dim>1</dim>
				</port>
			</output>
		</layer>
		<layer id="186" name="Conv_88/WithoutBiases" type="Convolution" version="opset1">
			<data auto_pad="explicit" strides="1,1" dilations="1,1" pads_begin="0,0" pads_end="0,0"/>
			<input>
				<port id="0">
					<dim>-1</dim>
					<dim>24</dim>
					<dim>104</dim>
					<dim>-1</dim>
				</port>
				<port id="1">
					<dim>24</dim>
					<dim>24</dim>
					<dim>1</dim>
					<dim>1</dim>
				</port>
			</input>
			<output>
				<port id="2" precision="FP32">
					<dim>-1</dim>
					<dim>24</dim>
					<dim>104</dim>
					<dim>-1</dim>
				</port>
			</output>
		</layer>
		<layer id="187" name="Reshape_1005110021936" type="Const" version="opset1">
			<data offset="15919" size="96" shape="1,24,1,1" element_type="f32"/>
			<output>
				<port id="0" precision="FP32">
					<dim>1</dim>
					<dim>24</dim>
					<dim>1</dim>
					<dim>1</dim>
				</port>
			</output>
		</layer>
		<layer id="188" name="Conv_88" type="Add" version="opset1">
			<data auto_broadcast="numpy"/>
			<input>
				<port id="0">
					<dim>-1</dim>
					<dim>24</dim>
					<dim>104</dim>
					<dim>-1</dim>
				</port>
				<port id="1">
					<dim>1</dim>
					<dim>24</dim>
					<dim>1</dim>
					<dim>1</dim>
				</port>
			</input>
			<output>
				<port id="2" precision="FP32" names="x.15">
					<dim>-1</dim>
					<dim>24</dim>
					<dim>104</dim>
					<dim>-1</dim>
				</port>
			</output>
		</layer>
		<layer id="189" name="Mul_90" type="Swish" version="opset4">
			<input>
				<port id="0">
					<dim>-1</dim>
					<dim>24</dim>
					<dim>104</dim>
					<dim>-1</dim>
				</port>
			</input>
			<output>
				<port id="1" precision="FP32" names="input.35">
					<dim>-1</dim>
					<dim>24</dim>
					<dim>104</dim>
					<dim>-1</dim>
				</port>
			</output>
		</layer>
		<layer id="190" name="Conv_91/WithoutBiases/fq_input_0" type="FakeQuantize" version="opset1">
			<data levels="256" auto_broadcast="numpy"/>
			<input>
				<port id="0">
					<dim>-1</dim>
					<dim>24</dim>
					<dim>104</dim>
					<dim>-1</dim>
				</port>
				<port id="1"/>
				<port id="2"/>
				<port id="3"/>
				<port id="4"/>
			</input>
			<output>
				<port id="5" precision="FP32">
					<dim>-1</dim>
					<dim>24</dim>
					<dim>104</dim>
					<dim>-1</dim>
				</port>
			</output>
		</layer>
		<layer id="191" name="Conv_91/WithoutBiases/fq_weights_1/scale1317022305" type="Const" version="opset1">
			<data offset="16015" size="96" shape="24,1,1,1" element_type="f32"/>
			<output>
				<port id="0" precision="FP32">
					<dim>24</dim>
					<dim>1</dim>
					<dim>1</dim>
					<dim>1</dim>
				</port>
			</output>
		</layer>
		<layer id="192" name="onnx::Conv_1401110311961/quantized1316220373" type="Const" version="opset1">
			<data offset="16111" size="5184" shape="24,24,3,3" element_type="i8"/>
			<output>
				<port id="0" precision="I8">
					<dim>24</dim>
					<dim>24</dim>
					<dim>3</dim>
					<dim>3</dim>
				</port>
			</output>
		</layer>
		<layer id="193" name="onnx::Conv_1401110311961/quantized/to_f32" type="Convert" version="opset1">
			<data destination_type="f32"/>
			<input>
				<port id="0">
					<dim>24</dim>
					<dim>24</dim>
					<dim>3</dim>
					<dim>3</dim>
				</port>
			</input>
			<output>
				<port id="1" precision="FP32">
					<dim>24</dim>
					<dim>24</dim>
					<dim>3</dim>
					<dim>3</dim>
				</port>
			</output>
		</layer>
		<layer id="194" name="Conv_91/WithoutBiases/fq_weights_1/mulpiply_by_scale" type="Multiply" version="opset1">
			<data auto_broadcast="numpy"/>
			<input>
				<port id="0">
					<dim>24</dim>
					<dim>24</dim>
					<dim>3</dim>
					<dim>3</dim>
				</port>
				<port id="1">
					<dim>24</dim>
					<dim>1</dim>
					<dim>1</dim>
					<dim>1</dim>
				</port>
			</input>
			<output>
				<port id="2" precision="FP32">
					<dim>24</dim>
					<dim>24</dim>
					<dim>3</dim>
					<dim>3</dim>
				</port>
			</output>
		</layer>
		<layer id="195" name="Conv_91/WithoutBiases" type="Convolution" version="opset1">
			<data auto_pad="explicit" strides="1,1" dilations="1,1" pads_begin="1,1" pads_end="1,1"/>
			<input>
				<port id="0">
					<dim>-1</dim>
					<dim>24</dim>
					<dim>104</dim>
					<dim>-1</dim>
				</port>
				<port id="1">
					<dim>24</dim>
					<dim>24</dim>
					<dim>3</dim>
					<dim>3</dim>
				</port>
			</input>
			<output>
				<port id="2" precision="FP32">
					<dim>-1</dim>
					<dim>24</dim>
					<dim>104</dim>
					<dim>-1</dim>
				</port>
			</output>
		</layer>
		<layer id="196" name="Reshape_1055110522404" type="Const" version="opset1">
			<data offset="21295" size="96" shape="1,24,1,1" element_type="f32"/>
			<output>
				<port id="0" precision="FP32">
					<dim>1</dim>
					<dim>24</dim>
					<dim>1</dim>
					<dim>1</dim>
				</port>
			</output>
		</layer>
		<layer id="197" name="Conv_91" type="Add" version="opset1">
			<data auto_broadcast="numpy"/>
			<input>
				<port id="0">
					<dim>-1</dim>
					<dim>24</dim>
					<dim>104</dim>
					<dim>-1</dim>
				</port>
				<port id="1">
					<dim>1</dim>
					<dim>24</dim>
					<dim>1</dim>
					<dim>1</dim>
				</port>
			</input>
			<output>
				<port id="2" precision="FP32" names="x.19">
					<dim>-1</dim>
					<dim>24</dim>
					<dim>104</dim>
					<dim>-1</dim>
				</port>
			</output>
		</layer>
		<layer id="198" name="Mul_93" type="Swish" version="opset4">
			<input>
				<port id="0">
					<dim>-1</dim>
					<dim>24</dim>
					<dim>104</dim>
					<dim>-1</dim>
				</port>
			</input>
			<output>
				<port id="1" precision="FP32" names="onnx::Add_533">
					<dim>-1</dim>
					<dim>24</dim>
					<dim>104</dim>
					<dim>-1</dim>
				</port>
			</output>
		</layer>
		<layer id="199" name="Add_94/fq_input_0" type="FakeQuantize" version="opset1">
			<data levels="256" auto_broadcast="numpy"/>
			<input>
				<port id="0">
					<dim>-1</dim>
					<dim>24</dim>
					<dim>104</dim>
					<dim>-1</dim>
				</port>
				<port id="1"/>
				<port id="2"/>
				<port id="3"/>
				<port id="4"/>
			</input>
			<output>
				<port id="5" precision="FP32">
					<dim>-1</dim>
					<dim>24</dim>
					<dim>104</dim>
					<dim>-1</dim>
				</port>
			</output>
		</layer>
		<layer id="200" name="Add_94" type="Add" version="opset1">
			<data auto_broadcast="numpy"/>
			<input>
				<port id="0">
					<dim>-1</dim>
					<dim>24</dim>
					<dim>104</dim>
					<dim>-1</dim>
				</port>
				<port id="1">
					<dim>-1</dim>
					<dim>24</dim>
					<dim>104</dim>
					<dim>-1</dim>
				</port>
			</input>
			<output>
				<port id="2" precision="FP32" names="x_main">
					<dim>-1</dim>
					<dim>24</dim>
					<dim>104</dim>
					<dim>-1</dim>
				</port>
			</output>
		</layer>
		<layer id="201" name="Concat_95/fq_input_0" type="FakeQuantize" version="opset1">
			<data levels="256" auto_broadcast="numpy"/>
			<input>
				<port id="0">
					<dim>-1</dim>
					<dim>24</dim>
					<dim>104</dim>
					<dim>-1</dim>
				</port>
				<port id="1"/>
				<port id="2"/>
				<port id="3"/>
				<port id="4"/>
			</input>
			<output>
				<port id="5" precision="FP32">
					<dim>-1</dim>
					<dim>24</dim>
					<dim>104</dim>
					<dim>-1</dim>
				</port>
			</output>
		</layer>
		<layer id="202" name="7335733920799" type="Const" version="opset1">
			<data offset="160" size="4" shape="" element_type="f32"/>
			<output>
				<port id="0" precision="FP32"/>
			</output>
		</layer>
		<layer id="203" name="7336734022131" type="Const" version="opset1">
			<data offset="164" size="4" shape="" element_type="f32"/>
			<output>
				<port id="0" precision="FP32"/>
			</output>
		</layer>
		<layer id="204" name="7337734121273" type="Const" version="opset1">
			<data offset="160" size="4" shape="" element_type="f32"/>
			<output>
				<port id="0" precision="FP32"/>
			</output>
		</layer>
		<layer id="205" name="7338734222173" type="Const" version="opset1">
			<data offset="164" size="4" shape="" element_type="f32"/>
			<output>
				<port id="0" precision="FP32"/>
			</output>
		</layer>
		<layer id="206" name="Conv_82/WithoutBiases/fq_weights_1/scale1398020601" type="Const" version="opset1">
			<data offset="21391" size="96" shape="24,1,1,1" element_type="f32"/>
			<output>
				<port id="0" precision="FP32">
					<dim>24</dim>
					<dim>1</dim>
					<dim>1</dim>
					<dim>1</dim>
				</port>
			</output>
		</layer>
		<layer id="207" name="onnx::Conv_1392110911963/quantized1397221324" type="Const" version="opset1">
			<data offset="21487" size="1152" shape="24,48,1,1" element_type="i8"/>
			<output>
				<port id="0" precision="I8">
					<dim>24</dim>
					<dim>48</dim>
					<dim>1</dim>
					<dim>1</dim>
				</port>
			</output>
		</layer>
		<layer id="208" name="onnx::Conv_1392110911963/quantized/to_f32" type="Convert" version="opset1">
			<data destination_type="f32"/>
			<input>
				<port id="0">
					<dim>24</dim>
					<dim>48</dim>
					<dim>1</dim>
					<dim>1</dim>
				</port>
			</input>
			<output>
				<port id="1" precision="FP32">
					<dim>24</dim>
					<dim>48</dim>
					<dim>1</dim>
					<dim>1</dim>
				</port>
			</output>
		</layer>
		<layer id="209" name="Conv_82/WithoutBiases/fq_weights_1/mulpiply_by_scale" type="Multiply" version="opset1">
			<data auto_broadcast="numpy"/>
			<input>
				<port id="0">
					<dim>24</dim>
					<dim>48</dim>
					<dim>1</dim>
					<dim>1</dim>
				</port>
				<port id="1">
					<dim>24</dim>
					<dim>1</dim>
					<dim>1</dim>
					<dim>1</dim>
				</port>
			</input>
			<output>
				<port id="2" precision="FP32">
					<dim>24</dim>
					<dim>48</dim>
					<dim>1</dim>
					<dim>1</dim>
				</port>
			</output>
		</layer>
		<layer id="210" name="Conv_82/WithoutBiases" type="Convolution" version="opset1">
			<data auto_pad="explicit" strides="1,1" dilations="1,1" pads_begin="0,0" pads_end="0,0"/>
			<input>
				<port id="0">
					<dim>-1</dim>
					<dim>48</dim>
					<dim>104</dim>
					<dim>-1</dim>
				</port>
				<port id="1">
					<dim>24</dim>
					<dim>48</dim>
					<dim>1</dim>
					<dim>1</dim>
				</port>
			</input>
			<output>
				<port id="2" precision="FP32">
					<dim>-1</dim>
					<dim>24</dim>
					<dim>104</dim>
					<dim>-1</dim>
				</port>
			</output>
		</layer>
		<layer id="211" name="Reshape_905111120553" type="Const" version="opset1">
			<data offset="22639" size="96" shape="1,24,1,1" element_type="f32"/>
			<output>
				<port id="0" precision="FP32">
					<dim>1</dim>
					<dim>24</dim>
					<dim>1</dim>
					<dim>1</dim>
				</port>
			</output>
		</layer>
		<layer id="212" name="Conv_82" type="Add" version="opset1">
			<data auto_broadcast="numpy"/>
			<input>
				<port id="0">
					<dim>-1</dim>
					<dim>24</dim>
					<dim>104</dim>
					<dim>-1</dim>
				</port>
				<port id="1">
					<dim>1</dim>
					<dim>24</dim>
					<dim>1</dim>
					<dim>1</dim>
				</port>
			</input>
			<output>
				<port id="2" precision="FP32" names="x.7">
					<dim>-1</dim>
					<dim>24</dim>
					<dim>104</dim>
					<dim>-1</dim>
				</port>
			</output>
		</layer>
		<layer id="213" name="Mul_84" type="Swish" version="opset4">
			<input>
				<port id="0">
					<dim>-1</dim>
					<dim>24</dim>
					<dim>104</dim>
					<dim>-1</dim>
				</port>
			</input>
			<output>
				<port id="1" precision="FP32" names="x_short">
					<dim>-1</dim>
					<dim>24</dim>
					<dim>104</dim>
					<dim>-1</dim>
				</port>
			</output>
		</layer>
		<layer id="214" name="Concat_95/fq_input_1" type="FakeQuantize" version="opset1">
			<data levels="256" auto_broadcast="numpy"/>
			<input>
				<port id="0">
					<dim>-1</dim>
					<dim>24</dim>
					<dim>104</dim>
					<dim>-1</dim>
				</port>
				<port id="1"/>
				<port id="2"/>
				<port id="3"/>
				<port id="4"/>
			</input>
			<output>
				<port id="5" precision="FP32">
					<dim>-1</dim>
					<dim>24</dim>
					<dim>104</dim>
					<dim>-1</dim>
				</port>
			</output>
		</layer>
		<layer id="215" name="Concat_95" type="Concat" version="opset1">
			<data axis="1"/>
			<input>
				<port id="0">
					<dim>-1</dim>
					<dim>24</dim>
					<dim>104</dim>
					<dim>-1</dim>
				</port>
				<port id="1">
					<dim>-1</dim>
					<dim>24</dim>
					<dim>104</dim>
					<dim>-1</dim>
				</port>
			</input>
			<output>
				<port id="2" precision="FP32" names="input.43">
					<dim>-1</dim>
					<dim>48</dim>
					<dim>104</dim>
					<dim>-1</dim>
				</port>
			</output>
		</layer>
		<layer id="216" name="Conv_96/WithoutBiases/fq_weights_1/scale1362021168" type="Const" version="opset1">
			<data offset="22735" size="192" shape="48,1,1,1" element_type="f32"/>
			<output>
				<port id="0" precision="FP32">
					<dim>48</dim>
					<dim>1</dim>
					<dim>1</dim>
					<dim>1</dim>
				</port>
			</output>
		</layer>
		<layer id="217" name="onnx::Conv_1404111511965/quantized1361220697" type="Const" version="opset1">
			<data offset="22927" size="2304" shape="48,48,1,1" element_type="i8"/>
			<output>
				<port id="0" precision="I8">
					<dim>48</dim>
					<dim>48</dim>
					<dim>1</dim>
					<dim>1</dim>
				</port>
			</output>
		</layer>
		<layer id="218" name="onnx::Conv_1404111511965/quantized/to_f32" type="Convert" version="opset1">
			<data destination_type="f32"/>
			<input>
				<port id="0">
					<dim>48</dim>
					<dim>48</dim>
					<dim>1</dim>
					<dim>1</dim>
				</port>
			</input>
			<output>
				<port id="1" precision="FP32">
					<dim>48</dim>
					<dim>48</dim>
					<dim>1</dim>
					<dim>1</dim>
				</port>
			</output>
		</layer>
		<layer id="219" name="Conv_96/WithoutBiases/fq_weights_1/mulpiply_by_scale" type="Multiply" version="opset1">
			<data auto_broadcast="numpy"/>
			<input>
				<port id="0">
					<dim>48</dim>
					<dim>48</dim>
					<dim>1</dim>
					<dim>1</dim>
				</port>
				<port id="1">
					<dim>48</dim>
					<dim>1</dim>
					<dim>1</dim>
					<dim>1</dim>
				</port>
			</input>
			<output>
				<port id="2" precision="FP32">
					<dim>48</dim>
					<dim>48</dim>
					<dim>1</dim>
					<dim>1</dim>
				</port>
			</output>
		</layer>
		<layer id="220" name="Conv_96/WithoutBiases" type="Convolution" version="opset1">
			<data auto_pad="explicit" strides="1,1" dilations="1,1" pads_begin="0,0" pads_end="0,0"/>
			<input>
				<port id="0">
					<dim>-1</dim>
					<dim>48</dim>
					<dim>104</dim>
					<dim>-1</dim>
				</port>
				<port id="1">
					<dim>48</dim>
					<dim>48</dim>
					<dim>1</dim>
					<dim>1</dim>
				</port>
			</input>
			<output>
				<port id="2" precision="FP32">
					<dim>-1</dim>
					<dim>48</dim>
					<dim>104</dim>
					<dim>-1</dim>
				</port>
			</output>
		</layer>
		<layer id="221" name="Reshape_1107111722140" type="Const" version="opset1">
			<data offset="25231" size="192" shape="1,48,1,1" element_type="f32"/>
			<output>
				<port id="0" precision="FP32">
					<dim>1</dim>
					<dim>48</dim>
					<dim>1</dim>
					<dim>1</dim>
				</port>
			</output>
		</layer>
		<layer id="222" name="Conv_96" type="Add" version="opset1">
			<data auto_broadcast="numpy"/>
			<input>
				<port id="0">
					<dim>-1</dim>
					<dim>48</dim>
					<dim>104</dim>
					<dim>-1</dim>
				</port>
				<port id="1">
					<dim>1</dim>
					<dim>48</dim>
					<dim>1</dim>
					<dim>1</dim>
				</port>
			</input>
			<output>
				<port id="2" precision="FP32" names="x.23">
					<dim>-1</dim>
					<dim>48</dim>
					<dim>104</dim>
					<dim>-1</dim>
				</port>
			</output>
		</layer>
		<layer id="223" name="Mul_98" type="Swish" version="opset4">
			<input>
				<port id="0">
					<dim>-1</dim>
					<dim>48</dim>
					<dim>104</dim>
					<dim>-1</dim>
				</port>
			</input>
			<output>
				<port id="1" precision="FP32" names="input.51">
					<dim>-1</dim>
					<dim>48</dim>
					<dim>104</dim>
					<dim>-1</dim>
				</port>
			</output>
		</layer>
		<layer id="224" name="Conv_99/WithoutBiases/fq_input_0" type="FakeQuantize" version="opset1">
			<data levels="256" auto_broadcast="numpy"/>
			<input>
				<port id="0">
					<dim>-1</dim>
					<dim>48</dim>
					<dim>104</dim>
					<dim>-1</dim>
				</port>
				<port id="1"/>
				<port id="2"/>
				<port id="3"/>
				<port id="4"/>
			</input>
			<output>
				<port id="5" precision="FP32">
					<dim>-1</dim>
					<dim>48</dim>
					<dim>104</dim>
					<dim>-1</dim>
				</port>
			</output>
		</layer>
		<layer id="225" name="Conv_99/WithoutBiases/fq_weights_1/scale1425022806" type="Const" version="opset1">
			<data offset="25423" size="384" shape="96,1,1,1" element_type="f32"/>
			<output>
				<port id="0" precision="FP32">
					<dim>96</dim>
					<dim>1</dim>
					<dim>1</dim>
					<dim>1</dim>
				</port>
			</output>
		</layer>
		<layer id="226" name="onnx::Conv_1407112011967/quantized1424222107" type="Const" version="opset1">
			<data offset="25807" size="41472" shape="96,48,3,3" element_type="i8"/>
			<output>
				<port id="0" precision="I8">
					<dim>96</dim>
					<dim>48</dim>
					<dim>3</dim>
					<dim>3</dim>
				</port>
			</output>
		</layer>
		<layer id="227" name="onnx::Conv_1407112011967/quantized/to_f32" type="Convert" version="opset1">
			<data destination_type="f32"/>
			<input>
				<port id="0">
					<dim>96</dim>
					<dim>48</dim>
					<dim>3</dim>
					<dim>3</dim>
				</port>
			</input>
			<output>
				<port id="1" precision="FP32">
					<dim>96</dim>
					<dim>48</dim>
					<dim>3</dim>
					<dim>3</dim>
				</port>
			</output>
		</layer>
		<layer id="228" name="Conv_99/WithoutBiases/fq_weights_1/mulpiply_by_scale" type="Multiply" version="opset1">
			<data auto_broadcast="numpy"/>
			<input>
				<port id="0">
					<dim>96</dim>
					<dim>48</dim>
					<dim>3</dim>
					<dim>3</dim>
				</port>
				<port id="1">
					<dim>96</dim>
					<dim>1</dim>
					<dim>1</dim>
					<dim>1</dim>
				</port>
			</input>
			<output>
				<port id="2" precision="FP32">
					<dim>96</dim>
					<dim>48</dim>
					<dim>3</dim>
					<dim>3</dim>
				</port>
			</output>
		</layer>
		<layer id="229" name="Conv_99/WithoutBiases" type="Convolution" version="opset1">
			<data auto_pad="explicit" strides="2,2" dilations="1,1" pads_begin="1,1" pads_end="1,1"/>
			<input>
				<port id="0">
					<dim>-1</dim>
					<dim>48</dim>
					<dim>104</dim>
					<dim>-1</dim>
				</port>
				<port id="1">
					<dim>96</dim>
					<dim>48</dim>
					<dim>3</dim>
					<dim>3</dim>
				</port>
			</input>
			<output>
				<port id="2" precision="FP32">
					<dim>-1</dim>
					<dim>96</dim>
					<dim>52</dim>
					<dim>-1</dim>
				</port>
			</output>
		</layer>
		<layer id="230" name="Reshape_1157112220706" type="Const" version="opset1">
			<data offset="67279" size="384" shape="1,96,1,1" element_type="f32"/>
			<output>
				<port id="0" precision="FP32">
					<dim>1</dim>
					<dim>96</dim>
					<dim>1</dim>
					<dim>1</dim>
				</port>
			</output>
		</layer>
		<layer id="231" name="Conv_99" type="Add" version="opset1">
			<data auto_broadcast="numpy"/>
			<input>
				<port id="0">
					<dim>-1</dim>
					<dim>96</dim>
					<dim>52</dim>
					<dim>-1</dim>
				</port>
				<port id="1">
					<dim>1</dim>
					<dim>96</dim>
					<dim>1</dim>
					<dim>1</dim>
				</port>
			</input>
			<output>
				<port id="2" precision="FP32" names="x.27">
					<dim>-1</dim>
					<dim>96</dim>
					<dim>52</dim>
					<dim>-1</dim>
				</port>
			</output>
		</layer>
		<layer id="232" name="Mul_101" type="Swish" version="opset4">
			<input>
				<port id="0">
					<dim>-1</dim>
					<dim>96</dim>
					<dim>52</dim>
					<dim>-1</dim>
				</port>
			</input>
			<output>
				<port id="1" precision="FP32" names="input.59">
					<dim>-1</dim>
					<dim>96</dim>
					<dim>52</dim>
					<dim>-1</dim>
				</port>
			</output>
		</layer>
		<layer id="233" name="Conv_102/WithoutBiases/fq_input_0" type="FakeQuantize" version="opset1">
			<data levels="256" auto_broadcast="numpy"/>
			<input>
				<port id="0">
					<dim>-1</dim>
					<dim>96</dim>
					<dim>52</dim>
					<dim>-1</dim>
				</port>
				<port id="1"/>
				<port id="2"/>
				<port id="3"/>
				<port id="4"/>
			</input>
			<output>
				<port id="5" precision="FP32">
					<dim>-1</dim>
					<dim>96</dim>
					<dim>52</dim>
					<dim>-1</dim>
				</port>
			</output>
		</layer>
		<layer id="234" name="Conv_105/WithoutBiases/fq_weights_1/scale1323020574" type="Const" version="opset1">
			<data offset="67663" size="192" shape="48,1,1,1" element_type="f32"/>
			<output>
				<port id="0" precision="FP32">
					<dim>48</dim>
					<dim>1</dim>
					<dim>1</dim>
					<dim>1</dim>
				</port>
			</output>
		</layer>
		<layer id="235" name="onnx::Conv_1413112511969/quantized1322222248" type="Const" version="opset1">
			<data offset="67855" size="4608" shape="48,96,1,1" element_type="i8"/>
			<output>
				<port id="0" precision="I8">
					<dim>48</dim>
					<dim>96</dim>
					<dim>1</dim>
					<dim>1</dim>
				</port>
			</output>
		</layer>
		<layer id="236" name="onnx::Conv_1413112511969/quantized/to_f32" type="Convert" version="opset1">
			<data destination_type="f32"/>
			<input>
				<port id="0">
					<dim>48</dim>
					<dim>96</dim>
					<dim>1</dim>
					<dim>1</dim>
				</port>
			</input>
			<output>
				<port id="1" precision="FP32">
					<dim>48</dim>
					<dim>96</dim>
					<dim>1</dim>
					<dim>1</dim>
				</port>
			</output>
		</layer>
		<layer id="237" name="Conv_105/WithoutBiases/fq_weights_1/mulpiply_by_scale" type="Multiply" version="opset1">
			<data auto_broadcast="numpy"/>
			<input>
				<port id="0">
					<dim>48</dim>
					<dim>96</dim>
					<dim>1</dim>
					<dim>1</dim>
				</port>
				<port id="1">
					<dim>48</dim>
					<dim>1</dim>
					<dim>1</dim>
					<dim>1</dim>
				</port>
			</input>
			<output>
				<port id="2" precision="FP32">
					<dim>48</dim>
					<dim>96</dim>
					<dim>1</dim>
					<dim>1</dim>
				</port>
			</output>
		</layer>
		<layer id="238" name="Conv_105/WithoutBiases" type="Convolution" version="opset1">
			<data auto_pad="explicit" strides="1,1" dilations="1,1" pads_begin="0,0" pads_end="0,0"/>
			<input>
				<port id="0">
					<dim>-1</dim>
					<dim>96</dim>
					<dim>52</dim>
					<dim>-1</dim>
				</port>
				<port id="1">
					<dim>48</dim>
					<dim>96</dim>
					<dim>1</dim>
					<dim>1</dim>
				</port>
			</input>
			<output>
				<port id="2" precision="FP32">
					<dim>-1</dim>
					<dim>48</dim>
					<dim>52</dim>
					<dim>-1</dim>
				</port>
			</output>
		</layer>
		<layer id="239" name="Reshape_1257112721693" type="Const" version="opset1">
			<data offset="72463" size="192" shape="1,48,1,1" element_type="f32"/>
			<output>
				<port id="0" precision="FP32">
					<dim>1</dim>
					<dim>48</dim>
					<dim>1</dim>
					<dim>1</dim>
				</port>
			</output>
		</layer>
		<layer id="240" name="Conv_105" type="Add" version="opset1">
			<data auto_broadcast="numpy"/>
			<input>
				<port id="0">
					<dim>-1</dim>
					<dim>48</dim>
					<dim>52</dim>
					<dim>-1</dim>
				</port>
				<port id="1">
					<dim>1</dim>
					<dim>48</dim>
					<dim>1</dim>
					<dim>1</dim>
				</port>
			</input>
			<output>
				<port id="2" precision="FP32" names="x.35">
					<dim>-1</dim>
					<dim>48</dim>
					<dim>52</dim>
					<dim>-1</dim>
				</port>
			</output>
		</layer>
		<layer id="241" name="Mul_107" type="Swish" version="opset4">
			<input>
				<port id="0">
					<dim>-1</dim>
					<dim>48</dim>
					<dim>52</dim>
					<dim>-1</dim>
				</port>
			</input>
			<output>
				<port id="1" precision="FP32" names="input.71">
					<dim>-1</dim>
					<dim>48</dim>
					<dim>52</dim>
					<dim>-1</dim>
				</port>
			</output>
		</layer>
		<layer id="242" name="Add_114/fq_input_1" type="FakeQuantize" version="opset1">
			<data levels="256" auto_broadcast="numpy"/>
			<input>
				<port id="0">
					<dim>-1</dim>
					<dim>48</dim>
					<dim>52</dim>
					<dim>-1</dim>
				</port>
				<port id="1"/>
				<port id="2"/>
				<port id="3"/>
				<port id="4"/>
			</input>
			<output>
				<port id="5" precision="FP32">
					<dim>-1</dim>
					<dim>48</dim>
					<dim>52</dim>
					<dim>-1</dim>
				</port>
			</output>
		</layer>
		<layer id="243" name="Conv_108/WithoutBiases/fq_weights_1/scale1491022629" type="Const" version="opset1">
			<data offset="72655" size="192" shape="48,1,1,1" element_type="f32"/>
			<output>
				<port id="0" precision="FP32">
					<dim>48</dim>
					<dim>1</dim>
					<dim>1</dim>
					<dim>1</dim>
				</port>
			</output>
		</layer>
		<layer id="244" name="onnx::Conv_1416113011971/quantized1490221792" type="Const" version="opset1">
			<data offset="72847" size="2304" shape="48,48,1,1" element_type="i8"/>
			<output>
				<port id="0" precision="I8">
					<dim>48</dim>
					<dim>48</dim>
					<dim>1</dim>
					<dim>1</dim>
				</port>
			</output>
		</layer>
		<layer id="245" name="onnx::Conv_1416113011971/quantized/to_f32" type="Convert" version="opset1">
			<data destination_type="f32"/>
			<input>
				<port id="0">
					<dim>48</dim>
					<dim>48</dim>
					<dim>1</dim>
					<dim>1</dim>
				</port>
			</input>
			<output>
				<port id="1" precision="FP32">
					<dim>48</dim>
					<dim>48</dim>
					<dim>1</dim>
					<dim>1</dim>
				</port>
			</output>
		</layer>
		<layer id="246" name="Conv_108/WithoutBiases/fq_weights_1/mulpiply_by_scale" type="Multiply" version="opset1">
			<data auto_broadcast="numpy"/>
			<input>
				<port id="0">
					<dim>48</dim>
					<dim>48</dim>
					<dim>1</dim>
					<dim>1</dim>
				</port>
				<port id="1">
					<dim>48</dim>
					<dim>1</dim>
					<dim>1</dim>
					<dim>1</dim>
				</port>
			</input>
			<output>
				<port id="2" precision="FP32">
					<dim>48</dim>
					<dim>48</dim>
					<dim>1</dim>
					<dim>1</dim>
				</port>
			</output>
		</layer>
		<layer id="247" name="Conv_108/WithoutBiases" type="Convolution" version="opset1">
			<data auto_pad="explicit" strides="1,1" dilations="1,1" pads_begin="0,0" pads_end="0,0"/>
			<input>
				<port id="0">
					<dim>-1</dim>
					<dim>48</dim>
					<dim>52</dim>
					<dim>-1</dim>
				</port>
				<port id="1">
					<dim>48</dim>
					<dim>48</dim>
					<dim>1</dim>
					<dim>1</dim>
				</port>
			</input>
			<output>
				<port id="2" precision="FP32">
					<dim>-1</dim>
					<dim>48</dim>
					<dim>52</dim>
					<dim>-1</dim>
				</port>
			</output>
		</layer>
		<layer id="248" name="Reshape_1307113222581" type="Const" version="opset1">
			<data offset="75151" size="192" shape="1,48,1,1" element_type="f32"/>
			<output>
				<port id="0" precision="FP32">
					<dim>1</dim>
					<dim>48</dim>
					<dim>1</dim>
					<dim>1</dim>
				</port>
			</output>
		</layer>
		<layer id="249" name="Conv_108" type="Add" version="opset1">
			<data auto_broadcast="numpy"/>
			<input>
				<port id="0">
					<dim>-1</dim>
					<dim>48</dim>
					<dim>52</dim>
					<dim>-1</dim>
				</port>
				<port id="1">
					<dim>1</dim>
					<dim>48</dim>
					<dim>1</dim>
					<dim>1</dim>
				</port>
			</input>
			<output>
				<port id="2" precision="FP32" names="x.39">
					<dim>-1</dim>
					<dim>48</dim>
					<dim>52</dim>
					<dim>-1</dim>
				</port>
			</output>
		</layer>
		<layer id="250" name="Mul_110" type="Swish" version="opset4">
			<input>
				<port id="0">
					<dim>-1</dim>
					<dim>48</dim>
					<dim>52</dim>
					<dim>-1</dim>
				</port>
			</input>
			<output>
				<port id="1" precision="FP32" names="input.79">
					<dim>-1</dim>
					<dim>48</dim>
					<dim>52</dim>
					<dim>-1</dim>
				</port>
			</output>
		</layer>
		<layer id="251" name="Conv_111/WithoutBiases/fq_input_0" type="FakeQuantize" version="opset1">
			<data levels="256" auto_broadcast="numpy"/>
			<input>
				<port id="0">
					<dim>-1</dim>
					<dim>48</dim>
					<dim>52</dim>
					<dim>-1</dim>
				</port>
				<port id="1"/>
				<port id="2"/>
				<port id="3"/>
				<port id="4"/>
			</input>
			<output>
				<port id="5" precision="FP32">
					<dim>-1</dim>
					<dim>48</dim>
					<dim>52</dim>
					<dim>-1</dim>
				</port>
			</output>
		</layer>
		<layer id="252" name="Conv_111/WithoutBiases/fq_weights_1/scale1548021645" type="Const" version="opset1">
			<data offset="75343" size="192" shape="48,1,1,1" element_type="f32"/>
			<output>
				<port id="0" precision="FP32">
					<dim>48</dim>
					<dim>1</dim>
					<dim>1</dim>
					<dim>1</dim>
				</port>
			</output>
		</layer>
		<layer id="253" name="onnx::Conv_1419113511973/quantized1547222785" type="Const" version="opset1">
			<data offset="75535" size="20736" shape="48,48,3,3" element_type="i8"/>
			<output>
				<port id="0" precision="I8">
					<dim>48</dim>
					<dim>48</dim>
					<dim>3</dim>
					<dim>3</dim>
				</port>
			</output>
		</layer>
		<layer id="254" name="onnx::Conv_1419113511973/quantized/to_f32" type="Convert" version="opset1">
			<data destination_type="f32"/>
			<input>
				<port id="0">
					<dim>48</dim>
					<dim>48</dim>
					<dim>3</dim>
					<dim>3</dim>
				</port>
			</input>
			<output>
				<port id="1" precision="FP32">
					<dim>48</dim>
					<dim>48</dim>
					<dim>3</dim>
					<dim>3</dim>
				</port>
			</output>
		</layer>
		<layer id="255" name="Conv_111/WithoutBiases/fq_weights_1/mulpiply_by_scale" type="Multiply" version="opset1">
			<data auto_broadcast="numpy"/>
			<input>
				<port id="0">
					<dim>48</dim>
					<dim>48</dim>
					<dim>3</dim>
					<dim>3</dim>
				</port>
				<port id="1">
					<dim>48</dim>
					<dim>1</dim>
					<dim>1</dim>
					<dim>1</dim>
				</port>
			</input>
			<output>
				<port id="2" precision="FP32">
					<dim>48</dim>
					<dim>48</dim>
					<dim>3</dim>
					<dim>3</dim>
				</port>
			</output>
		</layer>
		<layer id="256" name="Conv_111/WithoutBiases" type="Convolution" version="opset1">
			<data auto_pad="explicit" strides="1,1" dilations="1,1" pads_begin="1,1" pads_end="1,1"/>
			<input>
				<port id="0">
					<dim>-1</dim>
					<dim>48</dim>
					<dim>52</dim>
					<dim>-1</dim>
				</port>
				<port id="1">
					<dim>48</dim>
					<dim>48</dim>
					<dim>3</dim>
					<dim>3</dim>
				</port>
			</input>
			<output>
				<port id="2" precision="FP32">
					<dim>-1</dim>
					<dim>48</dim>
					<dim>52</dim>
					<dim>-1</dim>
				</port>
			</output>
		</layer>
		<layer id="257" name="Reshape_1357113722350" type="Const" version="opset1">
			<data offset="96271" size="192" shape="1,48,1,1" element_type="f32"/>
			<output>
				<port id="0" precision="FP32">
					<dim>1</dim>
					<dim>48</dim>
					<dim>1</dim>
					<dim>1</dim>
				</port>
			</output>
		</layer>
		<layer id="258" name="Conv_111" type="Add" version="opset1">
			<data auto_broadcast="numpy"/>
			<input>
				<port id="0">
					<dim>-1</dim>
					<dim>48</dim>
					<dim>52</dim>
					<dim>-1</dim>
				</port>
				<port id="1">
					<dim>1</dim>
					<dim>48</dim>
					<dim>1</dim>
					<dim>1</dim>
				</port>
			</input>
			<output>
				<port id="2" precision="FP32" names="x.43">
					<dim>-1</dim>
					<dim>48</dim>
					<dim>52</dim>
					<dim>-1</dim>
				</port>
			</output>
		</layer>
		<layer id="259" name="Mul_113" type="Swish" version="opset4">
			<input>
				<port id="0">
					<dim>-1</dim>
					<dim>48</dim>
					<dim>52</dim>
					<dim>-1</dim>
				</port>
			</input>
			<output>
				<port id="1" precision="FP32" names="onnx::Add_559">
					<dim>-1</dim>
					<dim>48</dim>
					<dim>52</dim>
					<dim>-1</dim>
				</port>
			</output>
		</layer>
		<layer id="260" name="Add_114/fq_input_0" type="FakeQuantize" version="opset1">
			<data levels="256" auto_broadcast="numpy"/>
			<input>
				<port id="0">
					<dim>-1</dim>
					<dim>48</dim>
					<dim>52</dim>
					<dim>-1</dim>
				</port>
				<port id="1"/>
				<port id="2"/>
				<port id="3"/>
				<port id="4"/>
			</input>
			<output>
				<port id="5" precision="FP32">
					<dim>-1</dim>
					<dim>48</dim>
					<dim>52</dim>
					<dim>-1</dim>
				</port>
			</output>
		</layer>
		<layer id="261" name="Add_114" type="Add" version="opset1">
			<data auto_broadcast="numpy"/>
			<input>
				<port id="0">
					<dim>-1</dim>
					<dim>48</dim>
					<dim>52</dim>
					<dim>-1</dim>
				</port>
				<port id="1">
					<dim>-1</dim>
					<dim>48</dim>
					<dim>52</dim>
					<dim>-1</dim>
				</port>
			</input>
			<output>
				<port id="2" precision="FP32" names="input.87">
					<dim>-1</dim>
					<dim>48</dim>
					<dim>52</dim>
					<dim>-1</dim>
				</port>
			</output>
		</layer>
		<layer id="262" name="Add_121/fq_input_1" type="FakeQuantize" version="opset1">
			<data levels="256" auto_broadcast="numpy"/>
			<input>
				<port id="0">
					<dim>-1</dim>
					<dim>48</dim>
					<dim>52</dim>
					<dim>-1</dim>
				</port>
				<port id="1"/>
				<port id="2"/>
				<port id="3"/>
				<port id="4"/>
			</input>
			<output>
				<port id="5" precision="FP32">
					<dim>-1</dim>
					<dim>48</dim>
					<dim>52</dim>
					<dim>-1</dim>
				</port>
			</output>
		</layer>
		<layer id="263" name="Conv_115/WithoutBiases/fq_weights_1/scale1530020997" type="Const" version="opset1">
			<data offset="96463" size="192" shape="48,1,1,1" element_type="f32"/>
			<output>
				<port id="0" precision="FP32">
					<dim>48</dim>
					<dim>1</dim>
					<dim>1</dim>
					<dim>1</dim>
				</port>
			</output>
		</layer>
		<layer id="264" name="onnx::Conv_1422114111975/quantized1529220877" type="Const" version="opset1">
			<data offset="96655" size="2304" shape="48,48,1,1" element_type="i8"/>
			<output>
				<port id="0" precision="I8">
					<dim>48</dim>
					<dim>48</dim>
					<dim>1</dim>
					<dim>1</dim>
				</port>
			</output>
		</layer>
		<layer id="265" name="onnx::Conv_1422114111975/quantized/to_f32" type="Convert" version="opset1">
			<data destination_type="f32"/>
			<input>
				<port id="0">
					<dim>48</dim>
					<dim>48</dim>
					<dim>1</dim>
					<dim>1</dim>
				</port>
			</input>
			<output>
				<port id="1" precision="FP32">
					<dim>48</dim>
					<dim>48</dim>
					<dim>1</dim>
					<dim>1</dim>
				</port>
			</output>
		</layer>
		<layer id="266" name="Conv_115/WithoutBiases/fq_weights_1/mulpiply_by_scale" type="Multiply" version="opset1">
			<data auto_broadcast="numpy"/>
			<input>
				<port id="0">
					<dim>48</dim>
					<dim>48</dim>
					<dim>1</dim>
					<dim>1</dim>
				</port>
				<port id="1">
					<dim>48</dim>
					<dim>1</dim>
					<dim>1</dim>
					<dim>1</dim>
				</port>
			</input>
			<output>
				<port id="2" precision="FP32">
					<dim>48</dim>
					<dim>48</dim>
					<dim>1</dim>
					<dim>1</dim>
				</port>
			</output>
		</layer>
		<layer id="267" name="Conv_115/WithoutBiases" type="Convolution" version="opset1">
			<data auto_pad="explicit" strides="1,1" dilations="1,1" pads_begin="0,0" pads_end="0,0"/>
			<input>
				<port id="0">
					<dim>-1</dim>
					<dim>48</dim>
					<dim>52</dim>
					<dim>-1</dim>
				</port>
				<port id="1">
					<dim>48</dim>
					<dim>48</dim>
					<dim>1</dim>
					<dim>1</dim>
				</port>
			</input>
			<output>
				<port id="2" precision="FP32">
					<dim>-1</dim>
					<dim>48</dim>
					<dim>52</dim>
					<dim>-1</dim>
				</port>
			</output>
		</layer>
		<layer id="268" name="Reshape_1408114322293" type="Const" version="opset1">
			<data offset="98959" size="192" shape="1,48,1,1" element_type="f32"/>
			<output>
				<port id="0" precision="FP32">
					<dim>1</dim>
					<dim>48</dim>
					<dim>1</dim>
					<dim>1</dim>
				</port>
			</output>
		</layer>
		<layer id="269" name="Conv_115" type="Add" version="opset1">
			<data auto_broadcast="numpy"/>
			<input>
				<port id="0">
					<dim>-1</dim>
					<dim>48</dim>
					<dim>52</dim>
					<dim>-1</dim>
				</port>
				<port id="1">
					<dim>1</dim>
					<dim>48</dim>
					<dim>1</dim>
					<dim>1</dim>
				</port>
			</input>
			<output>
				<port id="2" precision="FP32" names="x.47">
					<dim>-1</dim>
					<dim>48</dim>
					<dim>52</dim>
					<dim>-1</dim>
				</port>
			</output>
		</layer>
		<layer id="270" name="Mul_117" type="Swish" version="opset4">
			<input>
				<port id="0">
					<dim>-1</dim>
					<dim>48</dim>
					<dim>52</dim>
					<dim>-1</dim>
				</port>
			</input>
			<output>
				<port id="1" precision="FP32" names="input.95">
					<dim>-1</dim>
					<dim>48</dim>
					<dim>52</dim>
					<dim>-1</dim>
				</port>
			</output>
		</layer>
		<layer id="271" name="Conv_118/WithoutBiases/fq_input_0" type="FakeQuantize" version="opset1">
			<data levels="256" auto_broadcast="numpy"/>
			<input>
				<port id="0">
					<dim>-1</dim>
					<dim>48</dim>
					<dim>52</dim>
					<dim>-1</dim>
				</port>
				<port id="1"/>
				<port id="2"/>
				<port id="3"/>
				<port id="4"/>
			</input>
			<output>
				<port id="5" precision="FP32">
					<dim>-1</dim>
					<dim>48</dim>
					<dim>52</dim>
					<dim>-1</dim>
				</port>
			</output>
		</layer>
		<layer id="272" name="Conv_118/WithoutBiases/fq_weights_1/scale1509021453" type="Const" version="opset1">
			<data offset="99151" size="192" shape="48,1,1,1" element_type="f32"/>
			<output>
				<port id="0" precision="FP32">
					<dim>48</dim>
					<dim>1</dim>
					<dim>1</dim>
					<dim>1</dim>
				</port>
			</output>
		</layer>
		<layer id="273" name="onnx::Conv_1425114611977/quantized1508222464" type="Const" version="opset1">
			<data offset="99343" size="20736" shape="48,48,3,3" element_type="i8"/>
			<output>
				<port id="0" precision="I8">
					<dim>48</dim>
					<dim>48</dim>
					<dim>3</dim>
					<dim>3</dim>
				</port>
			</output>
		</layer>
		<layer id="274" name="onnx::Conv_1425114611977/quantized/to_f32" type="Convert" version="opset1">
			<data destination_type="f32"/>
			<input>
				<port id="0">
					<dim>48</dim>
					<dim>48</dim>
					<dim>3</dim>
					<dim>3</dim>
				</port>
			</input>
			<output>
				<port id="1" precision="FP32">
					<dim>48</dim>
					<dim>48</dim>
					<dim>3</dim>
					<dim>3</dim>
				</port>
			</output>
		</layer>
		<layer id="275" name="Conv_118/WithoutBiases/fq_weights_1/mulpiply_by_scale" type="Multiply" version="opset1">
			<data auto_broadcast="numpy"/>
			<input>
				<port id="0">
					<dim>48</dim>
					<dim>48</dim>
					<dim>3</dim>
					<dim>3</dim>
				</port>
				<port id="1">
					<dim>48</dim>
					<dim>1</dim>
					<dim>1</dim>
					<dim>1</dim>
				</port>
			</input>
			<output>
				<port id="2" precision="FP32">
					<dim>48</dim>
					<dim>48</dim>
					<dim>3</dim>
					<dim>3</dim>
				</port>
			</output>
		</layer>
		<layer id="276" name="Conv_118/WithoutBiases" type="Convolution" version="opset1">
			<data auto_pad="explicit" strides="1,1" dilations="1,1" pads_begin="1,1" pads_end="1,1"/>
			<input>
				<port id="0">
					<dim>-1</dim>
					<dim>48</dim>
					<dim>52</dim>
					<dim>-1</dim>
				</port>
				<port id="1">
					<dim>48</dim>
					<dim>48</dim>
					<dim>3</dim>
					<dim>3</dim>
				</port>
			</input>
			<output>
				<port id="2" precision="FP32">
					<dim>-1</dim>
					<dim>48</dim>
					<dim>52</dim>
					<dim>-1</dim>
				</port>
			</output>
		</layer>
		<layer id="277" name="Reshape_1458114822809" type="Const" version="opset1">
			<data offset="120079" size="192" shape="1,48,1,1" element_type="f32"/>
			<output>
				<port id="0" precision="FP32">
					<dim>1</dim>
					<dim>48</dim>
					<dim>1</dim>
					<dim>1</dim>
				</port>
			</output>
		</layer>
		<layer id="278" name="Conv_118" type="Add" version="opset1">
			<data auto_broadcast="numpy"/>
			<input>
				<port id="0">
					<dim>-1</dim>
					<dim>48</dim>
					<dim>52</dim>
					<dim>-1</dim>
				</port>
				<port id="1">
					<dim>1</dim>
					<dim>48</dim>
					<dim>1</dim>
					<dim>1</dim>
				</port>
			</input>
			<output>
				<port id="2" precision="FP32" names="x.51">
					<dim>-1</dim>
					<dim>48</dim>
					<dim>52</dim>
					<dim>-1</dim>
				</port>
			</output>
		</layer>
		<layer id="279" name="Mul_120" type="Swish" version="opset4">
			<input>
				<port id="0">
					<dim>-1</dim>
					<dim>48</dim>
					<dim>52</dim>
					<dim>-1</dim>
				</port>
			</input>
			<output>
				<port id="1" precision="FP32" names="onnx::Add_568">
					<dim>-1</dim>
					<dim>48</dim>
					<dim>52</dim>
					<dim>-1</dim>
				</port>
			</output>
		</layer>
		<layer id="280" name="Add_121/fq_input_0" type="FakeQuantize" version="opset1">
			<data levels="256" auto_broadcast="numpy"/>
			<input>
				<port id="0">
					<dim>-1</dim>
					<dim>48</dim>
					<dim>52</dim>
					<dim>-1</dim>
				</port>
				<port id="1"/>
				<port id="2"/>
				<port id="3"/>
				<port id="4"/>
			</input>
			<output>
				<port id="5" precision="FP32">
					<dim>-1</dim>
					<dim>48</dim>
					<dim>52</dim>
					<dim>-1</dim>
				</port>
			</output>
		</layer>
		<layer id="281" name="Add_121" type="Add" version="opset1">
			<data auto_broadcast="numpy"/>
			<input>
				<port id="0">
					<dim>-1</dim>
					<dim>48</dim>
					<dim>52</dim>
					<dim>-1</dim>
				</port>
				<port id="1">
					<dim>-1</dim>
					<dim>48</dim>
					<dim>52</dim>
					<dim>-1</dim>
				</port>
			</input>
			<output>
				<port id="2" precision="FP32" names="input.103">
					<dim>-1</dim>
					<dim>48</dim>
					<dim>52</dim>
					<dim>-1</dim>
				</port>
			</output>
		</layer>
		<layer id="282" name="Add_128/fq_input_1" type="FakeQuantize" version="opset1">
			<data levels="256" auto_broadcast="numpy"/>
			<input>
				<port id="0">
					<dim>-1</dim>
					<dim>48</dim>
					<dim>52</dim>
					<dim>-1</dim>
				</port>
				<port id="1"/>
				<port id="2"/>
				<port id="3"/>
				<port id="4"/>
			</input>
			<output>
				<port id="5" precision="FP32">
					<dim>-1</dim>
					<dim>48</dim>
					<dim>52</dim>
					<dim>-1</dim>
				</port>
			</output>
		</layer>
		<layer id="283" name="Conv_122/WithoutBiases/fq_weights_1/scale1326021399" type="Const" version="opset1">
			<data offset="120271" size="192" shape="48,1,1,1" element_type="f32"/>
			<output>
				<port id="0" precision="FP32">
					<dim>48</dim>
					<dim>1</dim>
					<dim>1</dim>
					<dim>1</dim>
				</port>
			</output>
		</layer>
		<layer id="284" name="onnx::Conv_1428115211979/quantized1325221261" type="Const" version="opset1">
			<data offset="120463" size="2304" shape="48,48,1,1" element_type="i8"/>
			<output>
				<port id="0" precision="I8">
					<dim>48</dim>
					<dim>48</dim>
					<dim>1</dim>
					<dim>1</dim>
				</port>
			</output>
		</layer>
		<layer id="285" name="onnx::Conv_1428115211979/quantized/to_f32" type="Convert" version="opset1">
			<data destination_type="f32"/>
			<input>
				<port id="0">
					<dim>48</dim>
					<dim>48</dim>
					<dim>1</dim>
					<dim>1</dim>
				</port>
			</input>
			<output>
				<port id="1" precision="FP32">
					<dim>48</dim>
					<dim>48</dim>
					<dim>1</dim>
					<dim>1</dim>
				</port>
			</output>
		</layer>
		<layer id="286" name="Conv_122/WithoutBiases/fq_weights_1/mulpiply_by_scale" type="Multiply" version="opset1">
			<data auto_broadcast="numpy"/>
			<input>
				<port id="0">
					<dim>48</dim>
					<dim>48</dim>
					<dim>1</dim>
					<dim>1</dim>
				</port>
				<port id="1">
					<dim>48</dim>
					<dim>1</dim>
					<dim>1</dim>
					<dim>1</dim>
				</port>
			</input>
			<output>
				<port id="2" precision="FP32">
					<dim>48</dim>
					<dim>48</dim>
					<dim>1</dim>
					<dim>1</dim>
				</port>
			</output>
		</layer>
		<layer id="287" name="Conv_122/WithoutBiases" type="Convolution" version="opset1">
			<data auto_pad="explicit" strides="1,1" dilations="1,1" pads_begin="0,0" pads_end="0,0"/>
			<input>
				<port id="0">
					<dim>-1</dim>
					<dim>48</dim>
					<dim>52</dim>
					<dim>-1</dim>
				</port>
				<port id="1">
					<dim>48</dim>
					<dim>48</dim>
					<dim>1</dim>
					<dim>1</dim>
				</port>
			</input>
			<output>
				<port id="2" precision="FP32">
					<dim>-1</dim>
					<dim>48</dim>
					<dim>52</dim>
					<dim>-1</dim>
				</port>
			</output>
		</layer>
		<layer id="288" name="Reshape_1509115422434" type="Const" version="opset1">
			<data offset="122767" size="192" shape="1,48,1,1" element_type="f32"/>
			<output>
				<port id="0" precision="FP32">
					<dim>1</dim>
					<dim>48</dim>
					<dim>1</dim>
					<dim>1</dim>
				</port>
			</output>
		</layer>
		<layer id="289" name="Conv_122" type="Add" version="opset1">
			<data auto_broadcast="numpy"/>
			<input>
				<port id="0">
					<dim>-1</dim>
					<dim>48</dim>
					<dim>52</dim>
					<dim>-1</dim>
				</port>
				<port id="1">
					<dim>1</dim>
					<dim>48</dim>
					<dim>1</dim>
					<dim>1</dim>
				</port>
			</input>
			<output>
				<port id="2" precision="FP32" names="x.55">
					<dim>-1</dim>
					<dim>48</dim>
					<dim>52</dim>
					<dim>-1</dim>
				</port>
			</output>
		</layer>
		<layer id="290" name="Mul_124" type="Swish" version="opset4">
			<input>
				<port id="0">
					<dim>-1</dim>
					<dim>48</dim>
					<dim>52</dim>
					<dim>-1</dim>
				</port>
			</input>
			<output>
				<port id="1" precision="FP32" names="input.111">
					<dim>-1</dim>
					<dim>48</dim>
					<dim>52</dim>
					<dim>-1</dim>
				</port>
			</output>
		</layer>
		<layer id="291" name="Conv_125/WithoutBiases/fq_input_0" type="FakeQuantize" version="opset1">
			<data levels="256" auto_broadcast="numpy"/>
			<input>
				<port id="0">
					<dim>-1</dim>
					<dim>48</dim>
					<dim>52</dim>
					<dim>-1</dim>
				</port>
				<port id="1"/>
				<port id="2"/>
				<port id="3"/>
				<port id="4"/>
			</input>
			<output>
				<port id="5" precision="FP32">
					<dim>-1</dim>
					<dim>48</dim>
					<dim>52</dim>
					<dim>-1</dim>
				</port>
			</output>
		</layer>
		<layer id="292" name="Conv_125/WithoutBiases/fq_weights_1/scale1494021075" type="Const" version="opset1">
			<data offset="122959" size="192" shape="48,1,1,1" element_type="f32"/>
			<output>
				<port id="0" precision="FP32">
					<dim>48</dim>
					<dim>1</dim>
					<dim>1</dim>
					<dim>1</dim>
				</port>
			</output>
		</layer>
		<layer id="293" name="onnx::Conv_1431115711981/quantized1493220355" type="Const" version="opset1">
			<data offset="123151" size="20736" shape="48,48,3,3" element_type="i8"/>
			<output>
				<port id="0" precision="I8">
					<dim>48</dim>
					<dim>48</dim>
					<dim>3</dim>
					<dim>3</dim>
				</port>
			</output>
		</layer>
		<layer id="294" name="onnx::Conv_1431115711981/quantized/to_f32" type="Convert" version="opset1">
			<data destination_type="f32"/>
			<input>
				<port id="0">
					<dim>48</dim>
					<dim>48</dim>
					<dim>3</dim>
					<dim>3</dim>
				</port>
			</input>
			<output>
				<port id="1" precision="FP32">
					<dim>48</dim>
					<dim>48</dim>
					<dim>3</dim>
					<dim>3</dim>
				</port>
			</output>
		</layer>
		<layer id="295" name="Conv_125/WithoutBiases/fq_weights_1/mulpiply_by_scale" type="Multiply" version="opset1">
			<data auto_broadcast="numpy"/>
			<input>
				<port id="0">
					<dim>48</dim>
					<dim>48</dim>
					<dim>3</dim>
					<dim>3</dim>
				</port>
				<port id="1">
					<dim>48</dim>
					<dim>1</dim>
					<dim>1</dim>
					<dim>1</dim>
				</port>
			</input>
			<output>
				<port id="2" precision="FP32">
					<dim>48</dim>
					<dim>48</dim>
					<dim>3</dim>
					<dim>3</dim>
				</port>
			</output>
		</layer>
		<layer id="296" name="Conv_125/WithoutBiases" type="Convolution" version="opset1">
			<data auto_pad="explicit" strides="1,1" dilations="1,1" pads_begin="1,1" pads_end="1,1"/>
			<input>
				<port id="0">
					<dim>-1</dim>
					<dim>48</dim>
					<dim>52</dim>
					<dim>-1</dim>
				</port>
				<port id="1">
					<dim>48</dim>
					<dim>48</dim>
					<dim>3</dim>
					<dim>3</dim>
				</port>
			</input>
			<output>
				<port id="2" precision="FP32">
					<dim>-1</dim>
					<dim>48</dim>
					<dim>52</dim>
					<dim>-1</dim>
				</port>
			</output>
		</layer>
		<layer id="297" name="Reshape_1559115922491" type="Const" version="opset1">
			<data offset="143887" size="192" shape="1,48,1,1" element_type="f32"/>
			<output>
				<port id="0" precision="FP32">
					<dim>1</dim>
					<dim>48</dim>
					<dim>1</dim>
					<dim>1</dim>
				</port>
			</output>
		</layer>
		<layer id="298" name="Conv_125" type="Add" version="opset1">
			<data auto_broadcast="numpy"/>
			<input>
				<port id="0">
					<dim>-1</dim>
					<dim>48</dim>
					<dim>52</dim>
					<dim>-1</dim>
				</port>
				<port id="1">
					<dim>1</dim>
					<dim>48</dim>
					<dim>1</dim>
					<dim>1</dim>
				</port>
			</input>
			<output>
				<port id="2" precision="FP32" names="x.59">
					<dim>-1</dim>
					<dim>48</dim>
					<dim>52</dim>
					<dim>-1</dim>
				</port>
			</output>
		</layer>
		<layer id="299" name="Mul_127" type="Swish" version="opset4">
			<input>
				<port id="0">
					<dim>-1</dim>
					<dim>48</dim>
					<dim>52</dim>
					<dim>-1</dim>
				</port>
			</input>
			<output>
				<port id="1" precision="FP32" names="onnx::Add_577">
					<dim>-1</dim>
					<dim>48</dim>
					<dim>52</dim>
					<dim>-1</dim>
				</port>
			</output>
		</layer>
		<layer id="300" name="Add_128/fq_input_0" type="FakeQuantize" version="opset1">
			<data levels="256" auto_broadcast="numpy"/>
			<input>
				<port id="0">
					<dim>-1</dim>
					<dim>48</dim>
					<dim>52</dim>
					<dim>-1</dim>
				</port>
				<port id="1"/>
				<port id="2"/>
				<port id="3"/>
				<port id="4"/>
			</input>
			<output>
				<port id="5" precision="FP32">
					<dim>-1</dim>
					<dim>48</dim>
					<dim>52</dim>
					<dim>-1</dim>
				</port>
			</output>
		</layer>
		<layer id="301" name="Add_128" type="Add" version="opset1">
			<data auto_broadcast="numpy"/>
			<input>
				<port id="0">
					<dim>-1</dim>
					<dim>48</dim>
					<dim>52</dim>
					<dim>-1</dim>
				</port>
				<port id="1">
					<dim>-1</dim>
					<dim>48</dim>
					<dim>52</dim>
					<dim>-1</dim>
				</port>
			</input>
			<output>
				<port id="2" precision="FP32" names="x_main.3">
					<dim>-1</dim>
					<dim>48</dim>
					<dim>52</dim>
					<dim>-1</dim>
				</port>
			</output>
		</layer>
		<layer id="302" name="Concat_129/fq_input_0" type="FakeQuantize" version="opset1">
			<data levels="256" auto_broadcast="numpy"/>
			<input>
				<port id="0">
					<dim>-1</dim>
					<dim>48</dim>
					<dim>52</dim>
					<dim>-1</dim>
				</port>
				<port id="1"/>
				<port id="2"/>
				<port id="3"/>
				<port id="4"/>
			</input>
			<output>
				<port id="5" precision="FP32">
					<dim>-1</dim>
					<dim>48</dim>
					<dim>52</dim>
					<dim>-1</dim>
				</port>
			</output>
		</layer>
		<layer id="303" name="6925692920814" type="Const" version="opset1">
			<data offset="64" size="4" shape="" element_type="f32"/>
			<output>
				<port id="0" precision="FP32"/>
			</output>
		</layer>
		<layer id="304" name="6926693021135" type="Const" version="opset1">
			<data offset="68" size="4" shape="" element_type="f32"/>
			<output>
				<port id="0" precision="FP32"/>
			</output>
		</layer>
		<layer id="305" name="6927693121921" type="Const" version="opset1">
			<data offset="64" size="4" shape="" element_type="f32"/>
			<output>
				<port id="0" precision="FP32"/>
			</output>
		</layer>
		<layer id="306" name="6928693222338" type="Const" version="opset1">
			<data offset="68" size="4" shape="" element_type="f32"/>
			<output>
				<port id="0" precision="FP32"/>
			</output>
		</layer>
		<layer id="307" name="Conv_102/WithoutBiases/fq_weights_1/scale1455022590" type="Const" version="opset1">
			<data offset="144079" size="192" shape="48,1,1,1" element_type="f32"/>
			<output>
				<port id="0" precision="FP32">
					<dim>48</dim>
					<dim>1</dim>
					<dim>1</dim>
					<dim>1</dim>
				</port>
			</output>
		</layer>
		<layer id="308" name="onnx::Conv_1410116311983/quantized1454220667" type="Const" version="opset1">
			<data offset="144271" size="4608" shape="48,96,1,1" element_type="i8"/>
			<output>
				<port id="0" precision="I8">
					<dim>48</dim>
					<dim>96</dim>
					<dim>1</dim>
					<dim>1</dim>
				</port>
			</output>
		</layer>
		<layer id="309" name="onnx::Conv_1410116311983/quantized/to_f32" type="Convert" version="opset1">
			<data destination_type="f32"/>
			<input>
				<port id="0">
					<dim>48</dim>
					<dim>96</dim>
					<dim>1</dim>
					<dim>1</dim>
				</port>
			</input>
			<output>
				<port id="1" precision="FP32">
					<dim>48</dim>
					<dim>96</dim>
					<dim>1</dim>
					<dim>1</dim>
				</port>
			</output>
		</layer>
		<layer id="310" name="Conv_102/WithoutBiases/fq_weights_1/mulpiply_by_scale" type="Multiply" version="opset1">
			<data auto_broadcast="numpy"/>
			<input>
				<port id="0">
					<dim>48</dim>
					<dim>96</dim>
					<dim>1</dim>
					<dim>1</dim>
				</port>
				<port id="1">
					<dim>48</dim>
					<dim>1</dim>
					<dim>1</dim>
					<dim>1</dim>
				</port>
			</input>
			<output>
				<port id="2" precision="FP32">
					<dim>48</dim>
					<dim>96</dim>
					<dim>1</dim>
					<dim>1</dim>
				</port>
			</output>
		</layer>
		<layer id="311" name="Conv_102/WithoutBiases" type="Convolution" version="opset1">
			<data auto_pad="explicit" strides="1,1" dilations="1,1" pads_begin="0,0" pads_end="0,0"/>
			<input>
				<port id="0">
					<dim>-1</dim>
					<dim>96</dim>
					<dim>52</dim>
					<dim>-1</dim>
				</port>
				<port id="1">
					<dim>48</dim>
					<dim>96</dim>
					<dim>1</dim>
					<dim>1</dim>
				</port>
			</input>
			<output>
				<port id="2" precision="FP32">
					<dim>-1</dim>
					<dim>48</dim>
					<dim>52</dim>
					<dim>-1</dim>
				</port>
			</output>
		</layer>
		<layer id="312" name="Reshape_1207116522617" type="Const" version="opset1">
			<data offset="148879" size="192" shape="1,48,1,1" element_type="f32"/>
			<output>
				<port id="0" precision="FP32">
					<dim>1</dim>
					<dim>48</dim>
					<dim>1</dim>
					<dim>1</dim>
				</port>
			</output>
		</layer>
		<layer id="313" name="Conv_102" type="Add" version="opset1">
			<data auto_broadcast="numpy"/>
			<input>
				<port id="0">
					<dim>-1</dim>
					<dim>48</dim>
					<dim>52</dim>
					<dim>-1</dim>
				</port>
				<port id="1">
					<dim>1</dim>
					<dim>48</dim>
					<dim>1</dim>
					<dim>1</dim>
				</port>
			</input>
			<output>
				<port id="2" precision="FP32" names="x.31">
					<dim>-1</dim>
					<dim>48</dim>
					<dim>52</dim>
					<dim>-1</dim>
				</port>
			</output>
		</layer>
		<layer id="314" name="Mul_104" type="Swish" version="opset4">
			<input>
				<port id="0">
					<dim>-1</dim>
					<dim>48</dim>
					<dim>52</dim>
					<dim>-1</dim>
				</port>
			</input>
			<output>
				<port id="1" precision="FP32" names="x_short.3">
					<dim>-1</dim>
					<dim>48</dim>
					<dim>52</dim>
					<dim>-1</dim>
				</port>
			</output>
		</layer>
		<layer id="315" name="Concat_129/fq_input_1" type="FakeQuantize" version="opset1">
			<data levels="256" auto_broadcast="numpy"/>
			<input>
				<port id="0">
					<dim>-1</dim>
					<dim>48</dim>
					<dim>52</dim>
					<dim>-1</dim>
				</port>
				<port id="1"/>
				<port id="2"/>
				<port id="3"/>
				<port id="4"/>
			</input>
			<output>
				<port id="5" precision="FP32">
					<dim>-1</dim>
					<dim>48</dim>
					<dim>52</dim>
					<dim>-1</dim>
				</port>
			</output>
		</layer>
		<layer id="316" name="Concat_129" type="Concat" version="opset1">
			<data axis="1"/>
			<input>
				<port id="0">
					<dim>-1</dim>
					<dim>48</dim>
					<dim>52</dim>
					<dim>-1</dim>
				</port>
				<port id="1">
					<dim>-1</dim>
					<dim>48</dim>
					<dim>52</dim>
					<dim>-1</dim>
				</port>
			</input>
			<output>
				<port id="2" precision="FP32" names="input.119">
					<dim>-1</dim>
					<dim>96</dim>
					<dim>52</dim>
					<dim>-1</dim>
				</port>
			</output>
		</layer>
		<layer id="317" name="Conv_130/WithoutBiases/fq_weights_1/scale1464021999" type="Const" version="opset1">
			<data offset="149071" size="384" shape="96,1,1,1" element_type="f32"/>
			<output>
				<port id="0" precision="FP32">
					<dim>96</dim>
					<dim>1</dim>
					<dim>1</dim>
					<dim>1</dim>
				</port>
			</output>
		</layer>
		<layer id="318" name="onnx::Conv_1434116911985/quantized1463222722" type="Const" version="opset1">
			<data offset="149455" size="9216" shape="96,96,1,1" element_type="i8"/>
			<output>
				<port id="0" precision="I8">
					<dim>96</dim>
					<dim>96</dim>
					<dim>1</dim>
					<dim>1</dim>
				</port>
			</output>
		</layer>
		<layer id="319" name="onnx::Conv_1434116911985/quantized/to_f32" type="Convert" version="opset1">
			<data destination_type="f32"/>
			<input>
				<port id="0">
					<dim>96</dim>
					<dim>96</dim>
					<dim>1</dim>
					<dim>1</dim>
				</port>
			</input>
			<output>
				<port id="1" precision="FP32">
					<dim>96</dim>
					<dim>96</dim>
					<dim>1</dim>
					<dim>1</dim>
				</port>
			</output>
		</layer>
		<layer id="320" name="Conv_130/WithoutBiases/fq_weights_1/mulpiply_by_scale" type="Multiply" version="opset1">
			<data auto_broadcast="numpy"/>
			<input>
				<port id="0">
					<dim>96</dim>
					<dim>96</dim>
					<dim>1</dim>
					<dim>1</dim>
				</port>
				<port id="1">
					<dim>96</dim>
					<dim>1</dim>
					<dim>1</dim>
					<dim>1</dim>
				</port>
			</input>
			<output>
				<port id="2" precision="FP32">
					<dim>96</dim>
					<dim>96</dim>
					<dim>1</dim>
					<dim>1</dim>
				</port>
			</output>
		</layer>
		<layer id="321" name="Conv_130/WithoutBiases" type="Convolution" version="opset1">
			<data auto_pad="explicit" strides="1,1" dilations="1,1" pads_begin="0,0" pads_end="0,0"/>
			<input>
				<port id="0">
					<dim>-1</dim>
					<dim>96</dim>
					<dim>52</dim>
					<dim>-1</dim>
				</port>
				<port id="1">
					<dim>96</dim>
					<dim>96</dim>
					<dim>1</dim>
					<dim>1</dim>
				</port>
			</input>
			<output>
				<port id="2" precision="FP32">
					<dim>-1</dim>
					<dim>96</dim>
					<dim>52</dim>
					<dim>-1</dim>
				</port>
			</output>
		</layer>
		<layer id="322" name="Reshape_1611117122374" type="Const" version="opset1">
			<data offset="158671" size="384" shape="1,96,1,1" element_type="f32"/>
			<output>
				<port id="0" precision="FP32">
					<dim>1</dim>
					<dim>96</dim>
					<dim>1</dim>
					<dim>1</dim>
				</port>
			</output>
		</layer>
		<layer id="323" name="Conv_130" type="Add" version="opset1">
			<data auto_broadcast="numpy"/>
			<input>
				<port id="0">
					<dim>-1</dim>
					<dim>96</dim>
					<dim>52</dim>
					<dim>-1</dim>
				</port>
				<port id="1">
					<dim>1</dim>
					<dim>96</dim>
					<dim>1</dim>
					<dim>1</dim>
				</port>
			</input>
			<output>
				<port id="2" precision="FP32" names="x.63">
					<dim>-1</dim>
					<dim>96</dim>
					<dim>52</dim>
					<dim>-1</dim>
				</port>
			</output>
		</layer>
		<layer id="324" name="Mul_132" type="Swish" version="opset4">
			<input>
				<port id="0">
					<dim>-1</dim>
					<dim>96</dim>
					<dim>52</dim>
					<dim>-1</dim>
				</port>
			</input>
			<output>
				<port id="1" precision="FP32" names="input.127">
					<dim>-1</dim>
					<dim>96</dim>
					<dim>52</dim>
					<dim>-1</dim>
				</port>
			</output>
		</layer>
		<layer id="325" name="Concat_223/fq_input_1" type="FakeQuantize" version="opset1">
			<data levels="256" auto_broadcast="numpy"/>
			<input>
				<port id="0">
					<dim>-1</dim>
					<dim>96</dim>
					<dim>52</dim>
					<dim>-1</dim>
				</port>
				<port id="1"/>
				<port id="2"/>
				<port id="3"/>
				<port id="4"/>
			</input>
			<output>
				<port id="5" precision="FP32">
					<dim>-1</dim>
					<dim>96</dim>
					<dim>52</dim>
					<dim>-1</dim>
				</port>
			</output>
		</layer>
		<layer id="326" name="7105710920478" type="Const" version="opset1">
			<data offset="56" size="4" shape="" element_type="f32"/>
			<output>
				<port id="0" precision="FP32"/>
			</output>
		</layer>
		<layer id="327" name="7106711022755" type="Const" version="opset1">
			<data offset="60" size="4" shape="" element_type="f32"/>
			<output>
				<port id="0" precision="FP32"/>
			</output>
		</layer>
		<layer id="328" name="7107711122119" type="Const" version="opset1">
			<data offset="56" size="4" shape="" element_type="f32"/>
			<output>
				<port id="0" precision="FP32"/>
			</output>
		</layer>
		<layer id="329" name="7108711222725" type="Const" version="opset1">
			<data offset="60" size="4" shape="" element_type="f32"/>
			<output>
				<port id="0" precision="FP32"/>
			</output>
		</layer>
		<layer id="330" name="onnx::Resize_1613128021102" type="Const" version="opset1">
			<data offset="159055" size="16" shape="4" element_type="f32"/>
			<output>
				<port id="0" precision="FP32" names="onnx::Resize_1612,onnx::Resize_1613">
					<dim>4</dim>
				</port>
			</output>
		</layer>
		<layer id="331" name="7175717920898" type="Const" version="opset1">
			<data offset="159071" size="4" shape="" element_type="f32"/>
			<output>
				<port id="0" precision="FP32"/>
			</output>
		</layer>
		<layer id="332" name="7176718021606" type="Const" version="opset1">
			<data offset="159075" size="4" shape="" element_type="f32"/>
			<output>
				<port id="0" precision="FP32"/>
			</output>
		</layer>
		<layer id="333" name="7177718121234" type="Const" version="opset1">
			<data offset="159071" size="4" shape="" element_type="f32"/>
			<output>
				<port id="0" precision="FP32"/>
			</output>
		</layer>
		<layer id="334" name="7178718222104" type="Const" version="opset1">
			<data offset="159075" size="4" shape="" element_type="f32"/>
			<output>
				<port id="0" precision="FP32"/>
			</output>
		</layer>
		<layer id="335" name="4072407622242" type="Const" version="opset1">
			<data offset="159079" size="4" shape="" element_type="f32"/>
			<output>
				<port id="0" precision="FP32"/>
			</output>
		</layer>
		<layer id="336" name="4073407722704" type="Const" version="opset1">
			<data offset="159083" size="4" shape="" element_type="f32"/>
			<output>
				<port id="0" precision="FP32"/>
			</output>
		</layer>
		<layer id="337" name="4074407821372" type="Const" version="opset1">
			<data offset="159079" size="4" shape="" element_type="f32"/>
			<output>
				<port id="0" precision="FP32"/>
			</output>
		</layer>
		<layer id="338" name="4075407920439" type="Const" version="opset1">
			<data offset="159083" size="4" shape="" element_type="f32"/>
			<output>
				<port id="0" precision="FP32"/>
			</output>
		</layer>
		<layer id="339" name="7085708921480" type="Const" version="opset1">
			<data offset="159087" size="4" shape="" element_type="f32"/>
			<output>
				<port id="0" precision="FP32"/>
			</output>
		</layer>
		<layer id="340" name="7086709022329" type="Const" version="opset1">
			<data offset="159091" size="4" shape="" element_type="f32"/>
			<output>
				<port id="0" precision="FP32"/>
			</output>
		</layer>
		<layer id="341" name="7087709121045" type="Const" version="opset1">
			<data offset="159087" size="4" shape="" element_type="f32"/>
			<output>
				<port id="0" precision="FP32"/>
			</output>
		</layer>
		<layer id="342" name="7088709220427" type="Const" version="opset1">
			<data offset="159091" size="4" shape="" element_type="f32"/>
			<output>
				<port id="0" precision="FP32"/>
			</output>
		</layer>
		<layer id="343" name="5522552621279" type="Const" version="opset1">
			<data offset="159095" size="4" shape="" element_type="f32"/>
			<output>
				<port id="0" precision="FP32"/>
			</output>
		</layer>
		<layer id="344" name="5523552720853" type="Const" version="opset1">
			<data offset="159099" size="4" shape="" element_type="f32"/>
			<output>
				<port id="0" precision="FP32"/>
			</output>
		</layer>
		<layer id="345" name="5524552821411" type="Const" version="opset1">
			<data offset="159095" size="4" shape="" element_type="f32"/>
			<output>
				<port id="0" precision="FP32"/>
			</output>
		</layer>
		<layer id="346" name="5525552920709" type="Const" version="opset1">
			<data offset="159099" size="4" shape="" element_type="f32"/>
			<output>
				<port id="0" precision="FP32"/>
			</output>
		</layer>
		<layer id="347" name="4692469622677" type="Const" version="opset1">
			<data offset="159103" size="4" shape="" element_type="f32"/>
			<output>
				<port id="0" precision="FP32"/>
			</output>
		</layer>
		<layer id="348" name="4693469720328" type="Const" version="opset1">
			<data offset="159107" size="4" shape="" element_type="f32"/>
			<output>
				<port id="0" precision="FP32"/>
			</output>
		</layer>
		<layer id="349" name="4694469822386" type="Const" version="opset1">
			<data offset="159103" size="4" shape="" element_type="f32"/>
			<output>
				<port id="0" precision="FP32"/>
			</output>
		</layer>
		<layer id="350" name="4695469921882" type="Const" version="opset1">
			<data offset="159107" size="4" shape="" element_type="f32"/>
			<output>
				<port id="0" precision="FP32"/>
			</output>
		</layer>
		<layer id="351" name="7055705922134" type="Const" version="opset1">
			<data offset="159111" size="4" shape="" element_type="f32"/>
			<output>
				<port id="0" precision="FP32"/>
			</output>
		</layer>
		<layer id="352" name="7056706020646" type="Const" version="opset1">
			<data offset="159115" size="4" shape="" element_type="f32"/>
			<output>
				<port id="0" precision="FP32"/>
			</output>
		</layer>
		<layer id="353" name="7057706120913" type="Const" version="opset1">
			<data offset="159111" size="4" shape="" element_type="f32"/>
			<output>
				<port id="0" precision="FP32"/>
			</output>
		</layer>
		<layer id="354" name="7058706220370" type="Const" version="opset1">
			<data offset="159115" size="4" shape="" element_type="f32"/>
			<output>
				<port id="0" precision="FP32"/>
			</output>
		</layer>
		<layer id="355" name="6935693921597" type="Const" version="opset1">
			<data offset="159119" size="4" shape="" element_type="f32"/>
			<output>
				<port id="0" precision="FP32"/>
			</output>
		</layer>
		<layer id="356" name="6936694021750" type="Const" version="opset1">
			<data offset="159123" size="4" shape="" element_type="f32"/>
			<output>
				<port id="0" precision="FP32"/>
			</output>
		</layer>
		<layer id="357" name="6937694120838" type="Const" version="opset1">
			<data offset="159119" size="4" shape="" element_type="f32"/>
			<output>
				<port id="0" precision="FP32"/>
			</output>
		</layer>
		<layer id="358" name="6938694221108" type="Const" version="opset1">
			<data offset="159123" size="4" shape="" element_type="f32"/>
			<output>
				<port id="0" precision="FP32"/>
			</output>
		</layer>
		<layer id="359" name="4332433620607" type="Const" version="opset1">
			<data offset="159127" size="4" shape="" element_type="f32"/>
			<output>
				<port id="0" precision="FP32"/>
			</output>
		</layer>
		<layer id="360" name="4333433722503" type="Const" version="opset1">
			<data offset="159131" size="4" shape="" element_type="f32"/>
			<output>
				<port id="0" precision="FP32"/>
			</output>
		</layer>
		<layer id="361" name="4334433820955" type="Const" version="opset1">
			<data offset="159127" size="4" shape="" element_type="f32"/>
			<output>
				<port id="0" precision="FP32"/>
			</output>
		</layer>
		<layer id="362" name="4335433920295" type="Const" version="opset1">
			<data offset="159131" size="4" shape="" element_type="f32"/>
			<output>
				<port id="0" precision="FP32"/>
			</output>
		</layer>
		<layer id="363" name="5012501622092" type="Const" version="opset1">
			<data offset="159135" size="4" shape="" element_type="f32"/>
			<output>
				<port id="0" precision="FP32"/>
			</output>
		</layer>
		<layer id="364" name="5013501721612" type="Const" version="opset1">
			<data offset="159139" size="4" shape="" element_type="f32"/>
			<output>
				<port id="0" precision="FP32"/>
			</output>
		</layer>
		<layer id="365" name="5014501821255" type="Const" version="opset1">
			<data offset="159135" size="4" shape="" element_type="f32"/>
			<output>
				<port id="0" precision="FP32"/>
			</output>
		</layer>
		<layer id="366" name="5015501922863" type="Const" version="opset1">
			<data offset="159139" size="4" shape="" element_type="f32"/>
			<output>
				<port id="0" precision="FP32"/>
			</output>
		</layer>
		<layer id="367" name="4342434622161" type="Const" version="opset1">
			<data offset="159143" size="4" shape="" element_type="f32"/>
			<output>
				<port id="0" precision="FP32"/>
			</output>
		</layer>
		<layer id="368" name="4343434721894" type="Const" version="opset1">
			<data offset="159147" size="4" shape="" element_type="f32"/>
			<output>
				<port id="0" precision="FP32"/>
			</output>
		</layer>
		<layer id="369" name="4344434821465" type="Const" version="opset1">
			<data offset="159143" size="4" shape="" element_type="f32"/>
			<output>
				<port id="0" precision="FP32"/>
			</output>
		</layer>
		<layer id="370" name="4345434922536" type="Const" version="opset1">
			<data offset="159147" size="4" shape="" element_type="f32"/>
			<output>
				<port id="0" precision="FP32"/>
			</output>
		</layer>
		<layer id="371" name="4272427620415" type="Const" version="opset1">
			<data offset="159151" size="4" shape="" element_type="f32"/>
			<output>
				<port id="0" precision="FP32"/>
			</output>
		</layer>
		<layer id="372" name="4273427722086" type="Const" version="opset1">
			<data offset="159155" size="4" shape="" element_type="f32"/>
			<output>
				<port id="0" precision="FP32"/>
			</output>
		</layer>
		<layer id="373" name="4274427820430" type="Const" version="opset1">
			<data offset="159151" size="4" shape="" element_type="f32"/>
			<output>
				<port id="0" precision="FP32"/>
			</output>
		</layer>
		<layer id="374" name="4275427921681" type="Const" version="opset1">
			<data offset="159155" size="4" shape="" element_type="f32"/>
			<output>
				<port id="0" precision="FP32"/>
			</output>
		</layer>
		<layer id="375" name="5282528621687" type="Const" version="opset1">
			<data offset="159159" size="4" shape="" element_type="f32"/>
			<output>
				<port id="0" precision="FP32"/>
			</output>
		</layer>
		<layer id="376" name="5283528721516" type="Const" version="opset1">
			<data offset="159163" size="4" shape="" element_type="f32"/>
			<output>
				<port id="0" precision="FP32"/>
			</output>
		</layer>
		<layer id="377" name="5284528820691" type="Const" version="opset1">
			<data offset="159159" size="4" shape="" element_type="f32"/>
			<output>
				<port id="0" precision="FP32"/>
			</output>
		</layer>
		<layer id="378" name="5285528920376" type="Const" version="opset1">
			<data offset="159163" size="4" shape="" element_type="f32"/>
			<output>
				<port id="0" precision="FP32"/>
			</output>
		</layer>
		<layer id="379" name="4282428621309" type="Const" version="opset1">
			<data offset="159167" size="4" shape="" element_type="f32"/>
			<output>
				<port id="0" precision="FP32"/>
			</output>
		</layer>
		<layer id="380" name="4283428722296" type="Const" version="opset1">
			<data offset="159171" size="4" shape="" element_type="f32"/>
			<output>
				<port id="0" precision="FP32"/>
			</output>
		</layer>
		<layer id="381" name="4284428822656" type="Const" version="opset1">
			<data offset="159167" size="4" shape="" element_type="f32"/>
			<output>
				<port id="0" precision="FP32"/>
			</output>
		</layer>
		<layer id="382" name="4285428922770" type="Const" version="opset1">
			<data offset="159171" size="4" shape="" element_type="f32"/>
			<output>
				<port id="0" precision="FP32"/>
			</output>
		</layer>
		<layer id="383" name="5302530620892" type="Const" version="opset1">
			<data offset="159175" size="4" shape="" element_type="f32"/>
			<output>
				<port id="0" precision="FP32"/>
			</output>
		</layer>
		<layer id="384" name="5303530721525" type="Const" version="opset1">
			<data offset="159179" size="4" shape="" element_type="f32"/>
			<output>
				<port id="0" precision="FP32"/>
			</output>
		</layer>
		<layer id="385" name="5304530821624" type="Const" version="opset1">
			<data offset="159175" size="4" shape="" element_type="f32"/>
			<output>
				<port id="0" precision="FP32"/>
			</output>
		</layer>
		<layer id="386" name="5305530921711" type="Const" version="opset1">
			<data offset="159179" size="4" shape="" element_type="f32"/>
			<output>
				<port id="0" precision="FP32"/>
			</output>
		</layer>
		<layer id="387" name="3942394622611" type="Const" version="opset1">
			<data offset="159183" size="4" shape="" element_type="f32"/>
			<output>
				<port id="0" precision="FP32"/>
			</output>
		</layer>
		<layer id="388" name="3943394721126" type="Const" version="opset1">
			<data offset="159187" size="4" shape="" element_type="f32"/>
			<output>
				<port id="0" precision="FP32"/>
			</output>
		</layer>
		<layer id="389" name="3944394822572" type="Const" version="opset1">
			<data offset="159183" size="4" shape="" element_type="f32"/>
			<output>
				<port id="0" precision="FP32"/>
			</output>
		</layer>
		<layer id="390" name="3945394920406" type="Const" version="opset1">
			<data offset="159187" size="4" shape="" element_type="f32"/>
			<output>
				<port id="0" precision="FP32"/>
			</output>
		</layer>
		<layer id="391" name="5312531622392" type="Const" version="opset1">
			<data offset="159191" size="4" shape="" element_type="f32"/>
			<output>
				<port id="0" precision="FP32"/>
			</output>
		</layer>
		<layer id="392" name="5313531721981" type="Const" version="opset1">
			<data offset="159195" size="4" shape="" element_type="f32"/>
			<output>
				<port id="0" precision="FP32"/>
			</output>
		</layer>
		<layer id="393" name="5314531822605" type="Const" version="opset1">
			<data offset="159191" size="4" shape="" element_type="f32"/>
			<output>
				<port id="0" precision="FP32"/>
			</output>
		</layer>
		<layer id="394" name="5315531922311" type="Const" version="opset1">
			<data offset="159195" size="4" shape="" element_type="f32"/>
			<output>
				<port id="0" precision="FP32"/>
			</output>
		</layer>
		<layer id="395" name="5662566622713" type="Const" version="opset1">
			<data offset="159199" size="4" shape="" element_type="f32"/>
			<output>
				<port id="0" precision="FP32"/>
			</output>
		</layer>
		<layer id="396" name="5663566722530" type="Const" version="opset1">
			<data offset="159203" size="4" shape="" element_type="f32"/>
			<output>
				<port id="0" precision="FP32"/>
			</output>
		</layer>
		<layer id="397" name="5664566822437" type="Const" version="opset1">
			<data offset="159199" size="4" shape="" element_type="f32"/>
			<output>
				<port id="0" precision="FP32"/>
			</output>
		</layer>
		<layer id="398" name="5665566922362" type="Const" version="opset1">
			<data offset="159203" size="4" shape="" element_type="f32"/>
			<output>
				<port id="0" precision="FP32"/>
			</output>
		</layer>
		<layer id="399" name="Conv_133/WithoutBiases/fq_weights_1/scale1497021162" type="Const" version="opset1">
			<data offset="159207" size="768" shape="192,1,1,1" element_type="f32"/>
			<output>
				<port id="0" precision="FP32">
					<dim>192</dim>
					<dim>1</dim>
					<dim>1</dim>
					<dim>1</dim>
				</port>
			</output>
		</layer>
		<layer id="400" name="onnx::Conv_1437117411987/quantized1496220724" type="Const" version="opset1">
			<data offset="159975" size="165888" shape="192,96,3,3" element_type="i8"/>
			<output>
				<port id="0" precision="I8">
					<dim>192</dim>
					<dim>96</dim>
					<dim>3</dim>
					<dim>3</dim>
				</port>
			</output>
		</layer>
		<layer id="401" name="onnx::Conv_1437117411987/quantized/to_f32" type="Convert" version="opset1">
			<data destination_type="f32"/>
			<input>
				<port id="0">
					<dim>192</dim>
					<dim>96</dim>
					<dim>3</dim>
					<dim>3</dim>
				</port>
			</input>
			<output>
				<port id="1" precision="FP32">
					<dim>192</dim>
					<dim>96</dim>
					<dim>3</dim>
					<dim>3</dim>
				</port>
			</output>
		</layer>
		<layer id="402" name="Conv_133/WithoutBiases/fq_weights_1/mulpiply_by_scale" type="Multiply" version="opset1">
			<data auto_broadcast="numpy"/>
			<input>
				<port id="0">
					<dim>192</dim>
					<dim>96</dim>
					<dim>3</dim>
					<dim>3</dim>
				</port>
				<port id="1">
					<dim>192</dim>
					<dim>1</dim>
					<dim>1</dim>
					<dim>1</dim>
				</port>
			</input>
			<output>
				<port id="2" precision="FP32">
					<dim>192</dim>
					<dim>96</dim>
					<dim>3</dim>
					<dim>3</dim>
				</port>
			</output>
		</layer>
		<layer id="403" name="Conv_133/WithoutBiases" type="Convolution" version="opset1">
			<data auto_pad="explicit" strides="2,2" dilations="1,1" pads_begin="1,1" pads_end="1,1"/>
			<input>
				<port id="0">
					<dim>-1</dim>
					<dim>96</dim>
					<dim>52</dim>
					<dim>-1</dim>
				</port>
				<port id="1">
					<dim>192</dim>
					<dim>96</dim>
					<dim>3</dim>
					<dim>3</dim>
				</port>
			</input>
			<output>
				<port id="2" precision="FP32">
					<dim>-1</dim>
					<dim>192</dim>
					<dim>26</dim>
					<dim>-1</dim>
				</port>
			</output>
		</layer>
		<layer id="404" name="Reshape_1661117621081" type="Const" version="opset1">
			<data offset="325863" size="768" shape="1,192,1,1" element_type="f32"/>
			<output>
				<port id="0" precision="FP32">
					<dim>1</dim>
					<dim>192</dim>
					<dim>1</dim>
					<dim>1</dim>
				</port>
			</output>
		</layer>
		<layer id="405" name="Conv_133" type="Add" version="opset1">
			<data auto_broadcast="numpy"/>
			<input>
				<port id="0">
					<dim>-1</dim>
					<dim>192</dim>
					<dim>26</dim>
					<dim>-1</dim>
				</port>
				<port id="1">
					<dim>1</dim>
					<dim>192</dim>
					<dim>1</dim>
					<dim>1</dim>
				</port>
			</input>
			<output>
				<port id="2" precision="FP32" names="x.67">
					<dim>-1</dim>
					<dim>192</dim>
					<dim>26</dim>
					<dim>-1</dim>
				</port>
			</output>
		</layer>
		<layer id="406" name="Mul_135" type="Swish" version="opset4">
			<input>
				<port id="0">
					<dim>-1</dim>
					<dim>192</dim>
					<dim>26</dim>
					<dim>-1</dim>
				</port>
			</input>
			<output>
				<port id="1" precision="FP32" names="input.135">
					<dim>-1</dim>
					<dim>192</dim>
					<dim>26</dim>
					<dim>-1</dim>
				</port>
			</output>
		</layer>
		<layer id="407" name="Conv_136/WithoutBiases/fq_input_0" type="FakeQuantize" version="opset1">
			<data levels="256" auto_broadcast="numpy"/>
			<input>
				<port id="0">
					<dim>-1</dim>
					<dim>192</dim>
					<dim>26</dim>
					<dim>-1</dim>
				</port>
				<port id="1"/>
				<port id="2"/>
				<port id="3"/>
				<port id="4"/>
			</input>
			<output>
				<port id="5" precision="FP32">
					<dim>-1</dim>
					<dim>192</dim>
					<dim>26</dim>
					<dim>-1</dim>
				</port>
			</output>
		</layer>
		<layer id="408" name="Conv_139/WithoutBiases/fq_weights_1/scale1431022563" type="Const" version="opset1">
			<data offset="326631" size="384" shape="96,1,1,1" element_type="f32"/>
			<output>
				<port id="0" precision="FP32">
					<dim>96</dim>
					<dim>1</dim>
					<dim>1</dim>
					<dim>1</dim>
				</port>
			</output>
		</layer>
		<layer id="409" name="onnx::Conv_1443117911989/quantized1430222332" type="Const" version="opset1">
			<data offset="327015" size="18432" shape="96,192,1,1" element_type="i8"/>
			<output>
				<port id="0" precision="I8">
					<dim>96</dim>
					<dim>192</dim>
					<dim>1</dim>
					<dim>1</dim>
				</port>
			</output>
		</layer>
		<layer id="410" name="onnx::Conv_1443117911989/quantized/to_f32" type="Convert" version="opset1">
			<data destination_type="f32"/>
			<input>
				<port id="0">
					<dim>96</dim>
					<dim>192</dim>
					<dim>1</dim>
					<dim>1</dim>
				</port>
			</input>
			<output>
				<port id="1" precision="FP32">
					<dim>96</dim>
					<dim>192</dim>
					<dim>1</dim>
					<dim>1</dim>
				</port>
			</output>
		</layer>
		<layer id="411" name="Conv_139/WithoutBiases/fq_weights_1/mulpiply_by_scale" type="Multiply" version="opset1">
			<data auto_broadcast="numpy"/>
			<input>
				<port id="0">
					<dim>96</dim>
					<dim>192</dim>
					<dim>1</dim>
					<dim>1</dim>
				</port>
				<port id="1">
					<dim>96</dim>
					<dim>1</dim>
					<dim>1</dim>
					<dim>1</dim>
				</port>
			</input>
			<output>
				<port id="2" precision="FP32">
					<dim>96</dim>
					<dim>192</dim>
					<dim>1</dim>
					<dim>1</dim>
				</port>
			</output>
		</layer>
		<layer id="412" name="Conv_139/WithoutBiases" type="Convolution" version="opset1">
			<data auto_pad="explicit" strides="1,1" dilations="1,1" pads_begin="0,0" pads_end="0,0"/>
			<input>
				<port id="0">
					<dim>-1</dim>
					<dim>192</dim>
					<dim>26</dim>
					<dim>-1</dim>
				</port>
				<port id="1">
					<dim>96</dim>
					<dim>192</dim>
					<dim>1</dim>
					<dim>1</dim>
				</port>
			</input>
			<output>
				<port id="2" precision="FP32">
					<dim>-1</dim>
					<dim>96</dim>
					<dim>26</dim>
					<dim>-1</dim>
				</port>
			</output>
		</layer>
		<layer id="413" name="Reshape_1761118122029" type="Const" version="opset1">
			<data offset="345447" size="384" shape="1,96,1,1" element_type="f32"/>
			<output>
				<port id="0" precision="FP32">
					<dim>1</dim>
					<dim>96</dim>
					<dim>1</dim>
					<dim>1</dim>
				</port>
			</output>
		</layer>
		<layer id="414" name="Conv_139" type="Add" version="opset1">
			<data auto_broadcast="numpy"/>
			<input>
				<port id="0">
					<dim>-1</dim>
					<dim>96</dim>
					<dim>26</dim>
					<dim>-1</dim>
				</port>
				<port id="1">
					<dim>1</dim>
					<dim>96</dim>
					<dim>1</dim>
					<dim>1</dim>
				</port>
			</input>
			<output>
				<port id="2" precision="FP32" names="x.75">
					<dim>-1</dim>
					<dim>96</dim>
					<dim>26</dim>
					<dim>-1</dim>
				</port>
			</output>
		</layer>
		<layer id="415" name="Mul_141" type="Swish" version="opset4">
			<input>
				<port id="0">
					<dim>-1</dim>
					<dim>96</dim>
					<dim>26</dim>
					<dim>-1</dim>
				</port>
			</input>
			<output>
				<port id="1" precision="FP32" names="input.147">
					<dim>-1</dim>
					<dim>96</dim>
					<dim>26</dim>
					<dim>-1</dim>
				</port>
			</output>
		</layer>
		<layer id="416" name="Add_148/fq_input_1" type="FakeQuantize" version="opset1">
			<data levels="256" auto_broadcast="numpy"/>
			<input>
				<port id="0">
					<dim>-1</dim>
					<dim>96</dim>
					<dim>26</dim>
					<dim>-1</dim>
				</port>
				<port id="1"/>
				<port id="2"/>
				<port id="3"/>
				<port id="4"/>
			</input>
			<output>
				<port id="5" precision="FP32">
					<dim>-1</dim>
					<dim>96</dim>
					<dim>26</dim>
					<dim>-1</dim>
				</port>
			</output>
		</layer>
		<layer id="417" name="Conv_142/WithoutBiases/fq_weights_1/scale1380022653" type="Const" version="opset1">
			<data offset="345831" size="384" shape="96,1,1,1" element_type="f32"/>
			<output>
				<port id="0" precision="FP32">
					<dim>96</dim>
					<dim>1</dim>
					<dim>1</dim>
					<dim>1</dim>
				</port>
			</output>
		</layer>
		<layer id="418" name="onnx::Conv_1446118411991/quantized1379221948" type="Const" version="opset1">
			<data offset="346215" size="9216" shape="96,96,1,1" element_type="i8"/>
			<output>
				<port id="0" precision="I8">
					<dim>96</dim>
					<dim>96</dim>
					<dim>1</dim>
					<dim>1</dim>
				</port>
			</output>
		</layer>
		<layer id="419" name="onnx::Conv_1446118411991/quantized/to_f32" type="Convert" version="opset1">
			<data destination_type="f32"/>
			<input>
				<port id="0">
					<dim>96</dim>
					<dim>96</dim>
					<dim>1</dim>
					<dim>1</dim>
				</port>
			</input>
			<output>
				<port id="1" precision="FP32">
					<dim>96</dim>
					<dim>96</dim>
					<dim>1</dim>
					<dim>1</dim>
				</port>
			</output>
		</layer>
		<layer id="420" name="Conv_142/WithoutBiases/fq_weights_1/mulpiply_by_scale" type="Multiply" version="opset1">
			<data auto_broadcast="numpy"/>
			<input>
				<port id="0">
					<dim>96</dim>
					<dim>96</dim>
					<dim>1</dim>
					<dim>1</dim>
				</port>
				<port id="1">
					<dim>96</dim>
					<dim>1</dim>
					<dim>1</dim>
					<dim>1</dim>
				</port>
			</input>
			<output>
				<port id="2" precision="FP32">
					<dim>96</dim>
					<dim>96</dim>
					<dim>1</dim>
					<dim>1</dim>
				</port>
			</output>
		</layer>
		<layer id="421" name="Conv_142/WithoutBiases" type="Convolution" version="opset1">
			<data auto_pad="explicit" strides="1,1" dilations="1,1" pads_begin="0,0" pads_end="0,0"/>
			<input>
				<port id="0">
					<dim>-1</dim>
					<dim>96</dim>
					<dim>26</dim>
					<dim>-1</dim>
				</port>
				<port id="1">
					<dim>96</dim>
					<dim>96</dim>
					<dim>1</dim>
					<dim>1</dim>
				</port>
			</input>
			<output>
				<port id="2" precision="FP32">
					<dim>-1</dim>
					<dim>96</dim>
					<dim>26</dim>
					<dim>-1</dim>
				</port>
			</output>
		</layer>
		<layer id="422" name="Reshape_1811118622662" type="Const" version="opset1">
			<data offset="355431" size="384" shape="1,96,1,1" element_type="f32"/>
			<output>
				<port id="0" precision="FP32">
					<dim>1</dim>
					<dim>96</dim>
					<dim>1</dim>
					<dim>1</dim>
				</port>
			</output>
		</layer>
		<layer id="423" name="Conv_142" type="Add" version="opset1">
			<data auto_broadcast="numpy"/>
			<input>
				<port id="0">
					<dim>-1</dim>
					<dim>96</dim>
					<dim>26</dim>
					<dim>-1</dim>
				</port>
				<port id="1">
					<dim>1</dim>
					<dim>96</dim>
					<dim>1</dim>
					<dim>1</dim>
				</port>
			</input>
			<output>
				<port id="2" precision="FP32" names="x.79">
					<dim>-1</dim>
					<dim>96</dim>
					<dim>26</dim>
					<dim>-1</dim>
				</port>
			</output>
		</layer>
		<layer id="424" name="Mul_144" type="Swish" version="opset4">
			<input>
				<port id="0">
					<dim>-1</dim>
					<dim>96</dim>
					<dim>26</dim>
					<dim>-1</dim>
				</port>
			</input>
			<output>
				<port id="1" precision="FP32" names="input.155">
					<dim>-1</dim>
					<dim>96</dim>
					<dim>26</dim>
					<dim>-1</dim>
				</port>
			</output>
		</layer>
		<layer id="425" name="Conv_145/WithoutBiases/fq_input_0" type="FakeQuantize" version="opset1">
			<data levels="256" auto_broadcast="numpy"/>
			<input>
				<port id="0">
					<dim>-1</dim>
					<dim>96</dim>
					<dim>26</dim>
					<dim>-1</dim>
				</port>
				<port id="1"/>
				<port id="2"/>
				<port id="3"/>
				<port id="4"/>
			</input>
			<output>
				<port id="5" precision="FP32">
					<dim>-1</dim>
					<dim>96</dim>
					<dim>26</dim>
					<dim>-1</dim>
				</port>
			</output>
		</layer>
		<layer id="426" name="Conv_145/WithoutBiases/fq_weights_1/scale1320022185" type="Const" version="opset1">
			<data offset="355815" size="384" shape="96,1,1,1" element_type="f32"/>
			<output>
				<port id="0" precision="FP32">
					<dim>96</dim>
					<dim>1</dim>
					<dim>1</dim>
					<dim>1</dim>
				</port>
			</output>
		</layer>
		<layer id="427" name="onnx::Conv_1449118911993/quantized1319220592" type="Const" version="opset1">
			<data offset="356199" size="82944" shape="96,96,3,3" element_type="i8"/>
			<output>
				<port id="0" precision="I8">
					<dim>96</dim>
					<dim>96</dim>
					<dim>3</dim>
					<dim>3</dim>
				</port>
			</output>
		</layer>
		<layer id="428" name="onnx::Conv_1449118911993/quantized/to_f32" type="Convert" version="opset1">
			<data destination_type="f32"/>
			<input>
				<port id="0">
					<dim>96</dim>
					<dim>96</dim>
					<dim>3</dim>
					<dim>3</dim>
				</port>
			</input>
			<output>
				<port id="1" precision="FP32">
					<dim>96</dim>
					<dim>96</dim>
					<dim>3</dim>
					<dim>3</dim>
				</port>
			</output>
		</layer>
		<layer id="429" name="Conv_145/WithoutBiases/fq_weights_1/mulpiply_by_scale" type="Multiply" version="opset1">
			<data auto_broadcast="numpy"/>
			<input>
				<port id="0">
					<dim>96</dim>
					<dim>96</dim>
					<dim>3</dim>
					<dim>3</dim>
				</port>
				<port id="1">
					<dim>96</dim>
					<dim>1</dim>
					<dim>1</dim>
					<dim>1</dim>
				</port>
			</input>
			<output>
				<port id="2" precision="FP32">
					<dim>96</dim>
					<dim>96</dim>
					<dim>3</dim>
					<dim>3</dim>
				</port>
			</output>
		</layer>
		<layer id="430" name="Conv_145/WithoutBiases" type="Convolution" version="opset1">
			<data auto_pad="explicit" strides="1,1" dilations="1,1" pads_begin="1,1" pads_end="1,1"/>
			<input>
				<port id="0">
					<dim>-1</dim>
					<dim>96</dim>
					<dim>26</dim>
					<dim>-1</dim>
				</port>
				<port id="1">
					<dim>96</dim>
					<dim>96</dim>
					<dim>3</dim>
					<dim>3</dim>
				</port>
			</input>
			<output>
				<port id="2" precision="FP32">
					<dim>-1</dim>
					<dim>96</dim>
					<dim>26</dim>
					<dim>-1</dim>
				</port>
			</output>
		</layer>
		<layer id="431" name="Reshape_1861119121159" type="Const" version="opset1">
			<data offset="439143" size="384" shape="1,96,1,1" element_type="f32"/>
			<output>
				<port id="0" precision="FP32">
					<dim>1</dim>
					<dim>96</dim>
					<dim>1</dim>
					<dim>1</dim>
				</port>
			</output>
		</layer>
		<layer id="432" name="Conv_145" type="Add" version="opset1">
			<data auto_broadcast="numpy"/>
			<input>
				<port id="0">
					<dim>-1</dim>
					<dim>96</dim>
					<dim>26</dim>
					<dim>-1</dim>
				</port>
				<port id="1">
					<dim>1</dim>
					<dim>96</dim>
					<dim>1</dim>
					<dim>1</dim>
				</port>
			</input>
			<output>
				<port id="2" precision="FP32" names="x.83">
					<dim>-1</dim>
					<dim>96</dim>
					<dim>26</dim>
					<dim>-1</dim>
				</port>
			</output>
		</layer>
		<layer id="433" name="Mul_147" type="Swish" version="opset4">
			<input>
				<port id="0">
					<dim>-1</dim>
					<dim>96</dim>
					<dim>26</dim>
					<dim>-1</dim>
				</port>
			</input>
			<output>
				<port id="1" precision="FP32" names="onnx::Add_603">
					<dim>-1</dim>
					<dim>96</dim>
					<dim>26</dim>
					<dim>-1</dim>
				</port>
			</output>
		</layer>
		<layer id="434" name="Add_148/fq_input_0" type="FakeQuantize" version="opset1">
			<data levels="256" auto_broadcast="numpy"/>
			<input>
				<port id="0">
					<dim>-1</dim>
					<dim>96</dim>
					<dim>26</dim>
					<dim>-1</dim>
				</port>
				<port id="1"/>
				<port id="2"/>
				<port id="3"/>
				<port id="4"/>
			</input>
			<output>
				<port id="5" precision="FP32">
					<dim>-1</dim>
					<dim>96</dim>
					<dim>26</dim>
					<dim>-1</dim>
				</port>
			</output>
		</layer>
		<layer id="435" name="Add_148" type="Add" version="opset1">
			<data auto_broadcast="numpy"/>
			<input>
				<port id="0">
					<dim>-1</dim>
					<dim>96</dim>
					<dim>26</dim>
					<dim>-1</dim>
				</port>
				<port id="1">
					<dim>-1</dim>
					<dim>96</dim>
					<dim>26</dim>
					<dim>-1</dim>
				</port>
			</input>
			<output>
				<port id="2" precision="FP32" names="input.163">
					<dim>-1</dim>
					<dim>96</dim>
					<dim>26</dim>
					<dim>-1</dim>
				</port>
			</output>
		</layer>
		<layer id="436" name="Add_155/fq_input_1" type="FakeQuantize" version="opset1">
			<data levels="256" auto_broadcast="numpy"/>
			<input>
				<port id="0">
					<dim>-1</dim>
					<dim>96</dim>
					<dim>26</dim>
					<dim>-1</dim>
				</port>
				<port id="1"/>
				<port id="2"/>
				<port id="3"/>
				<port id="4"/>
			</input>
			<output>
				<port id="5" precision="FP32">
					<dim>-1</dim>
					<dim>96</dim>
					<dim>26</dim>
					<dim>-1</dim>
				</port>
			</output>
		</layer>
		<layer id="437" name="Conv_149/WithoutBiases/fq_weights_1/scale1392020931" type="Const" version="opset1">
			<data offset="439527" size="384" shape="96,1,1,1" element_type="f32"/>
			<output>
				<port id="0" precision="FP32">
					<dim>96</dim>
					<dim>1</dim>
					<dim>1</dim>
					<dim>1</dim>
				</port>
			</output>
		</layer>
		<layer id="438" name="onnx::Conv_1452119511995/quantized1391221897" type="Const" version="opset1">
			<data offset="439911" size="9216" shape="96,96,1,1" element_type="i8"/>
			<output>
				<port id="0" precision="I8">
					<dim>96</dim>
					<dim>96</dim>
					<dim>1</dim>
					<dim>1</dim>
				</port>
			</output>
		</layer>
		<layer id="439" name="onnx::Conv_1452119511995/quantized/to_f32" type="Convert" version="opset1">
			<data destination_type="f32"/>
			<input>
				<port id="0">
					<dim>96</dim>
					<dim>96</dim>
					<dim>1</dim>
					<dim>1</dim>
				</port>
			</input>
			<output>
				<port id="1" precision="FP32">
					<dim>96</dim>
					<dim>96</dim>
					<dim>1</dim>
					<dim>1</dim>
				</port>
			</output>
		</layer>
		<layer id="440" name="Conv_149/WithoutBiases/fq_weights_1/mulpiply_by_scale" type="Multiply" version="opset1">
			<data auto_broadcast="numpy"/>
			<input>
				<port id="0">
					<dim>96</dim>
					<dim>96</dim>
					<dim>1</dim>
					<dim>1</dim>
				</port>
				<port id="1">
					<dim>96</dim>
					<dim>1</dim>
					<dim>1</dim>
					<dim>1</dim>
				</port>
			</input>
			<output>
				<port id="2" precision="FP32">
					<dim>96</dim>
					<dim>96</dim>
					<dim>1</dim>
					<dim>1</dim>
				</port>
			</output>
		</layer>
		<layer id="441" name="Conv_149/WithoutBiases" type="Convolution" version="opset1">
			<data auto_pad="explicit" strides="1,1" dilations="1,1" pads_begin="0,0" pads_end="0,0"/>
			<input>
				<port id="0">
					<dim>-1</dim>
					<dim>96</dim>
					<dim>26</dim>
					<dim>-1</dim>
				</port>
				<port id="1">
					<dim>96</dim>
					<dim>96</dim>
					<dim>1</dim>
					<dim>1</dim>
				</port>
			</input>
			<output>
				<port id="2" precision="FP32">
					<dim>-1</dim>
					<dim>96</dim>
					<dim>26</dim>
					<dim>-1</dim>
				</port>
			</output>
		</layer>
		<layer id="442" name="Reshape_1912119722236" type="Const" version="opset1">
			<data offset="449127" size="384" shape="1,96,1,1" element_type="f32"/>
			<output>
				<port id="0" precision="FP32">
					<dim>1</dim>
					<dim>96</dim>
					<dim>1</dim>
					<dim>1</dim>
				</port>
			</output>
		</layer>
		<layer id="443" name="Conv_149" type="Add" version="opset1">
			<data auto_broadcast="numpy"/>
			<input>
				<port id="0">
					<dim>-1</dim>
					<dim>96</dim>
					<dim>26</dim>
					<dim>-1</dim>
				</port>
				<port id="1">
					<dim>1</dim>
					<dim>96</dim>
					<dim>1</dim>
					<dim>1</dim>
				</port>
			</input>
			<output>
				<port id="2" precision="FP32" names="x.87">
					<dim>-1</dim>
					<dim>96</dim>
					<dim>26</dim>
					<dim>-1</dim>
				</port>
			</output>
		</layer>
		<layer id="444" name="Mul_151" type="Swish" version="opset4">
			<input>
				<port id="0">
					<dim>-1</dim>
					<dim>96</dim>
					<dim>26</dim>
					<dim>-1</dim>
				</port>
			</input>
			<output>
				<port id="1" precision="FP32" names="input.171">
					<dim>-1</dim>
					<dim>96</dim>
					<dim>26</dim>
					<dim>-1</dim>
				</port>
			</output>
		</layer>
		<layer id="445" name="Conv_152/WithoutBiases/fq_input_0" type="FakeQuantize" version="opset1">
			<data levels="256" auto_broadcast="numpy"/>
			<input>
				<port id="0">
					<dim>-1</dim>
					<dim>96</dim>
					<dim>26</dim>
					<dim>-1</dim>
				</port>
				<port id="1"/>
				<port id="2"/>
				<port id="3"/>
				<port id="4"/>
			</input>
			<output>
				<port id="5" precision="FP32">
					<dim>-1</dim>
					<dim>96</dim>
					<dim>26</dim>
					<dim>-1</dim>
				</port>
			</output>
		</layer>
		<layer id="446" name="Conv_152/WithoutBiases/fq_weights_1/scale1356022497" type="Const" version="opset1">
			<data offset="449511" size="384" shape="96,1,1,1" element_type="f32"/>
			<output>
				<port id="0" precision="FP32">
					<dim>96</dim>
					<dim>1</dim>
					<dim>1</dim>
					<dim>1</dim>
				</port>
			</output>
		</layer>
		<layer id="447" name="onnx::Conv_1455120011997/quantized1355221147" type="Const" version="opset1">
			<data offset="449895" size="82944" shape="96,96,3,3" element_type="i8"/>
			<output>
				<port id="0" precision="I8">
					<dim>96</dim>
					<dim>96</dim>
					<dim>3</dim>
					<dim>3</dim>
				</port>
			</output>
		</layer>
		<layer id="448" name="onnx::Conv_1455120011997/quantized/to_f32" type="Convert" version="opset1">
			<data destination_type="f32"/>
			<input>
				<port id="0">
					<dim>96</dim>
					<dim>96</dim>
					<dim>3</dim>
					<dim>3</dim>
				</port>
			</input>
			<output>
				<port id="1" precision="FP32">
					<dim>96</dim>
					<dim>96</dim>
					<dim>3</dim>
					<dim>3</dim>
				</port>
			</output>
		</layer>
		<layer id="449" name="Conv_152/WithoutBiases/fq_weights_1/mulpiply_by_scale" type="Multiply" version="opset1">
			<data auto_broadcast="numpy"/>
			<input>
				<port id="0">
					<dim>96</dim>
					<dim>96</dim>
					<dim>3</dim>
					<dim>3</dim>
				</port>
				<port id="1">
					<dim>96</dim>
					<dim>1</dim>
					<dim>1</dim>
					<dim>1</dim>
				</port>
			</input>
			<output>
				<port id="2" precision="FP32">
					<dim>96</dim>
					<dim>96</dim>
					<dim>3</dim>
					<dim>3</dim>
				</port>
			</output>
		</layer>
		<layer id="450" name="Conv_152/WithoutBiases" type="Convolution" version="opset1">
			<data auto_pad="explicit" strides="1,1" dilations="1,1" pads_begin="1,1" pads_end="1,1"/>
			<input>
				<port id="0">
					<dim>-1</dim>
					<dim>96</dim>
					<dim>26</dim>
					<dim>-1</dim>
				</port>
				<port id="1">
					<dim>96</dim>
					<dim>96</dim>
					<dim>3</dim>
					<dim>3</dim>
				</port>
			</input>
			<output>
				<port id="2" precision="FP32">
					<dim>-1</dim>
					<dim>96</dim>
					<dim>26</dim>
					<dim>-1</dim>
				</port>
			</output>
		</layer>
		<layer id="451" name="Reshape_1962120222401" type="Const" version="opset1">
			<data offset="532839" size="384" shape="1,96,1,1" element_type="f32"/>
			<output>
				<port id="0" precision="FP32">
					<dim>1</dim>
					<dim>96</dim>
					<dim>1</dim>
					<dim>1</dim>
				</port>
			</output>
		</layer>
		<layer id="452" name="Conv_152" type="Add" version="opset1">
			<data auto_broadcast="numpy"/>
			<input>
				<port id="0">
					<dim>-1</dim>
					<dim>96</dim>
					<dim>26</dim>
					<dim>-1</dim>
				</port>
				<port id="1">
					<dim>1</dim>
					<dim>96</dim>
					<dim>1</dim>
					<dim>1</dim>
				</port>
			</input>
			<output>
				<port id="2" precision="FP32" names="x.91">
					<dim>-1</dim>
					<dim>96</dim>
					<dim>26</dim>
					<dim>-1</dim>
				</port>
			</output>
		</layer>
		<layer id="453" name="Mul_154" type="Swish" version="opset4">
			<input>
				<port id="0">
					<dim>-1</dim>
					<dim>96</dim>
					<dim>26</dim>
					<dim>-1</dim>
				</port>
			</input>
			<output>
				<port id="1" precision="FP32" names="onnx::Add_612">
					<dim>-1</dim>
					<dim>96</dim>
					<dim>26</dim>
					<dim>-1</dim>
				</port>
			</output>
		</layer>
		<layer id="454" name="Add_155/fq_input_0" type="FakeQuantize" version="opset1">
			<data levels="256" auto_broadcast="numpy"/>
			<input>
				<port id="0">
					<dim>-1</dim>
					<dim>96</dim>
					<dim>26</dim>
					<dim>-1</dim>
				</port>
				<port id="1"/>
				<port id="2"/>
				<port id="3"/>
				<port id="4"/>
			</input>
			<output>
				<port id="5" precision="FP32">
					<dim>-1</dim>
					<dim>96</dim>
					<dim>26</dim>
					<dim>-1</dim>
				</port>
			</output>
		</layer>
		<layer id="455" name="Add_155" type="Add" version="opset1">
			<data auto_broadcast="numpy"/>
			<input>
				<port id="0">
					<dim>-1</dim>
					<dim>96</dim>
					<dim>26</dim>
					<dim>-1</dim>
				</port>
				<port id="1">
					<dim>-1</dim>
					<dim>96</dim>
					<dim>26</dim>
					<dim>-1</dim>
				</port>
			</input>
			<output>
				<port id="2" precision="FP32" names="input.179">
					<dim>-1</dim>
					<dim>96</dim>
					<dim>26</dim>
					<dim>-1</dim>
				</port>
			</output>
		</layer>
		<layer id="456" name="Add_162/fq_input_1" type="FakeQuantize" version="opset1">
			<data levels="256" auto_broadcast="numpy"/>
			<input>
				<port id="0">
					<dim>-1</dim>
					<dim>96</dim>
					<dim>26</dim>
					<dim>-1</dim>
				</port>
				<port id="1"/>
				<port id="2"/>
				<port id="3"/>
				<port id="4"/>
…
		<edge from-layer="1171" from-port="0" to-layer="1172" to-port="0"/>
		<edge from-layer="1172" from-port="1" to-layer="1173" to-port="0"/>
		<edge from-layer="1170" from-port="0" to-layer="1173" to-port="1"/>
		<edge from-layer="1064" from-port="5" to-layer="1174" to-port="0"/>
		<edge from-layer="1173" from-port="2" to-layer="1174" to-port="1"/>
		<edge from-layer="1174" from-port="2" to-layer="1176" to-port="0"/>
		<edge from-layer="1175" from-port="0" to-layer="1176" to-port="1"/>
		<edge from-layer="1176" from-port="2" to-layer="1177" to-port="0"/>
		<edge from-layer="1177" from-port="1" to-layer="1178" to-port="0"/>
		<edge from-layer="1166" from-port="0" to-layer="1178" to-port="1"/>
		<edge from-layer="1167" from-port="0" to-layer="1178" to-port="2"/>
		<edge from-layer="1168" from-port="0" to-layer="1178" to-port="3"/>
		<edge from-layer="1169" from-port="0" to-layer="1178" to-port="4"/>
		<edge from-layer="1180" from-port="0" to-layer="1181" to-port="0"/>
		<edge from-layer="1181" from-port="1" to-layer="1182" to-port="0"/>
		<edge from-layer="1179" from-port="0" to-layer="1182" to-port="1"/>
		<edge from-layer="1178" from-port="5" to-layer="1183" to-port="0"/>
		<edge from-layer="1182" from-port="2" to-layer="1183" to-port="1"/>
		<edge from-layer="1183" from-port="2" to-layer="1185" to-port="0"/>
		<edge from-layer="1184" from-port="0" to-layer="1185" to-port="1"/>
		<edge from-layer="1185" from-port="2" to-layer="1186" to-port="0"/>
		<edge from-layer="1186" from-port="1" to-layer="1187" to-port="0"/>
		<edge from-layer="1162" from-port="0" to-layer="1187" to-port="1"/>
		<edge from-layer="1163" from-port="0" to-layer="1187" to-port="2"/>
		<edge from-layer="1164" from-port="0" to-layer="1187" to-port="3"/>
		<edge from-layer="1165" from-port="0" to-layer="1187" to-port="4"/>
		<edge from-layer="1189" from-port="0" to-layer="1190" to-port="0"/>
		<edge from-layer="1190" from-port="1" to-layer="1191" to-port="0"/>
		<edge from-layer="1188" from-port="0" to-layer="1191" to-port="1"/>
		<edge from-layer="1187" from-port="5" to-layer="1192" to-port="0"/>
		<edge from-layer="1191" from-port="2" to-layer="1192" to-port="1"/>
		<edge from-layer="1192" from-port="2" to-layer="1194" to-port="0"/>
		<edge from-layer="1193" from-port="0" to-layer="1194" to-port="1"/>
		<edge from-layer="1194" from-port="2" to-layer="1195" to-port="0"/>
		<edge from-layer="1195" from-port="1" to-layer="1198" to-port="0"/>
		<edge from-layer="1196" from-port="0" to-layer="1198" to-port="1"/>
		<edge from-layer="1197" from-port="0" to-layer="1198" to-port="2"/>
		<edge from-layer="1194" from-port="2" to-layer="1199" to-port="0"/>
		<edge from-layer="1198" from-port="3" to-layer="1199" to-port="1"/>
		<edge from-layer="821" from-port="1" to-layer="1202" to-port="0"/>
		<edge from-layer="1200" from-port="0" to-layer="1202" to-port="1"/>
		<edge from-layer="1201" from-port="0" to-layer="1202" to-port="2"/>
		<edge from-layer="1202" from-port="3" to-layer="1203" to-port="0"/>
		<edge from-layer="123" from-port="0" to-layer="1203" to-port="1"/>
		<edge from-layer="1199" from-port="2" to-layer="1204" to-port="0"/>
		<edge from-layer="1203" from-port="2" to-layer="1204" to-port="1"/>
		<edge from-layer="1118" from-port="2" to-layer="1205" to-port="0"/>
		<edge from-layer="1161" from-port="2" to-layer="1205" to-port="1"/>
		<edge from-layer="1204" from-port="2" to-layer="1205" to-port="2"/>
		<edge from-layer="1205" from-port="3" to-layer="1206" to-port="0"/>
		<edge from-layer="1206" from-port="1" to-layer="1208" to-port="0"/>
		<edge from-layer="1207" from-port="0" to-layer="1208" to-port="1"/>
		<edge from-layer="1101" from-port="1" to-layer="1209" to-port="0"/>
		<edge from-layer="1208" from-port="2" to-layer="1209" to-port="1"/>
		<edge from-layer="1209" from-port="2" to-layer="1211" to-port="0"/>
		<edge from-layer="1210" from-port="0" to-layer="1211" to-port="1"/>
		<edge from-layer="1211" from-port="2" to-layer="1212" to-port="0"/>
		<edge from-layer="1212" from-port="1" to-layer="1215" to-port="0"/>
		<edge from-layer="1213" from-port="0" to-layer="1215" to-port="1"/>
		<edge from-layer="1214" from-port="0" to-layer="1215" to-port="2"/>
		<edge from-layer="1216" from-port="0" to-layer="1217" to-port="0"/>
		<edge from-layer="1215" from-port="3" to-layer="1217" to-port="1"/>
		<edge from-layer="1217" from-port="2" to-layer="1219" to-port="0"/>
		<edge from-layer="1218" from-port="0" to-layer="1219" to-port="1"/>
		<edge from-layer="1215" from-port="3" to-layer="1219" to-port="2"/>
		<edge from-layer="1219" from-port="3" to-layer="1221" to-port="0"/>
		<edge from-layer="1220" from-port="0" to-layer="1221" to-port="1"/>
		<edge from-layer="1221" from-port="2" to-layer="1223" to-port="0"/>
		<edge from-layer="1222" from-port="0" to-layer="1223" to-port="1"/>
		<edge from-layer="1223" from-port="2" to-layer="1224" to-port="0"/>
		<edge from-layer="1211" from-port="2" to-layer="1225" to-port="0"/>
		<edge from-layer="1224" from-port="1" to-layer="1225" to-port="1"/>
		<edge from-layer="820" from-port="2" to-layer="1228" to-port="0"/>
		<edge from-layer="1227" from-port="0" to-layer="1228" to-port="1"/>
		<edge from-layer="821" from-port="1" to-layer="1231" to-port="0"/>
		<edge from-layer="1229" from-port="0" to-layer="1231" to-port="1"/>
		<edge from-layer="1230" from-port="0" to-layer="1231" to-port="2"/>
		<edge from-layer="1231" from-port="3" to-layer="1233" to-port="0"/>
		<edge from-layer="123" from-port="0" to-layer="1233" to-port="1"/>
		<edge from-layer="1232" from-port="0" to-layer="1233" to-port="2"/>
		<edge from-layer="1228" from-port="2" to-layer="1234" to-port="0"/>
		<edge from-layer="1233" from-port="3" to-layer="1234" to-port="1"/>
		<edge from-layer="1236" from-port="0" to-layer="1237" to-port="0"/>
		<edge from-layer="1237" from-port="1" to-layer="1238" to-port="0"/>
		<edge from-layer="1235" from-port="0" to-layer="1238" to-port="1"/>
		<edge from-layer="1144" from-port="5" to-layer="1239" to-port="0"/>
		<edge from-layer="1238" from-port="2" to-layer="1239" to-port="1"/>
		<edge from-layer="1239" from-port="2" to-layer="1241" to-port="0"/>
		<edge from-layer="1240" from-port="0" to-layer="1241" to-port="1"/>
		<edge from-layer="1241" from-port="2" to-layer="1243" to-port="0"/>
		<edge from-layer="1242" from-port="0" to-layer="1243" to-port="1"/>
		<edge from-layer="821" from-port="1" to-layer="1246" to-port="0"/>
		<edge from-layer="1244" from-port="0" to-layer="1246" to-port="1"/>
		<edge from-layer="1245" from-port="0" to-layer="1246" to-port="2"/>
		<edge from-layer="1246" from-port="3" to-layer="1247" to-port="0"/>
		<edge from-layer="123" from-port="0" to-layer="1247" to-port="1"/>
		<edge from-layer="1232" from-port="0" to-layer="1247" to-port="2"/>
		<edge from-layer="1243" from-port="2" to-layer="1248" to-port="0"/>
		<edge from-layer="1247" from-port="3" to-layer="1248" to-port="1"/>
		<edge from-layer="1250" from-port="0" to-layer="1251" to-port="0"/>
		<edge from-layer="1251" from-port="1" to-layer="1252" to-port="0"/>
		<edge from-layer="1249" from-port="0" to-layer="1252" to-port="1"/>
		<edge from-layer="1187" from-port="5" to-layer="1253" to-port="0"/>
		<edge from-layer="1252" from-port="2" to-layer="1253" to-port="1"/>
		<edge from-layer="1253" from-port="2" to-layer="1255" to-port="0"/>
		<edge from-layer="1254" from-port="0" to-layer="1255" to-port="1"/>
		<edge from-layer="1255" from-port="2" to-layer="1257" to-port="0"/>
		<edge from-layer="1256" from-port="0" to-layer="1257" to-port="1"/>
		<edge from-layer="821" from-port="1" to-layer="1260" to-port="0"/>
		<edge from-layer="1258" from-port="0" to-layer="1260" to-port="1"/>
		<edge from-layer="1259" from-port="0" to-layer="1260" to-port="2"/>
		<edge from-layer="1260" from-port="3" to-layer="1261" to-port="0"/>
		<edge from-layer="123" from-port="0" to-layer="1261" to-port="1"/>
		<edge from-layer="1232" from-port="0" to-layer="1261" to-port="2"/>
		<edge from-layer="1257" from-port="2" to-layer="1262" to-port="0"/>
		<edge from-layer="1261" from-port="3" to-layer="1262" to-port="1"/>
		<edge from-layer="1234" from-port="2" to-layer="1263" to-port="0"/>
		<edge from-layer="1248" from-port="2" to-layer="1263" to-port="1"/>
		<edge from-layer="1262" from-port="2" to-layer="1263" to-port="2"/>
		<edge from-layer="1263" from-port="3" to-layer="1267" to-port="0"/>
		<edge from-layer="1264" from-port="0" to-layer="1267" to-port="1"/>
		<edge from-layer="1265" from-port="0" to-layer="1267" to-port="2"/>
		<edge from-layer="1266" from-port="0" to-layer="1267" to-port="3"/>
		<edge from-layer="782" from-port="2" to-layer="1269" to-port="0"/>
		<edge from-layer="1269" from-port="1" to-layer="1272" to-port="0"/>
		<edge from-layer="1270" from-port="0" to-layer="1272" to-port="1"/>
		<edge from-layer="1271" from-port="0" to-layer="1272" to-port="2"/>
		<edge from-layer="1268" from-port="0" to-layer="1274" to-port="0"/>
		<edge from-layer="1272" from-port="3" to-layer="1274" to-port="1"/>
		<edge from-layer="1273" from-port="0" to-layer="1274" to-port="2"/>
		<edge from-layer="1274" from-port="3" to-layer="1276" to-port="0"/>
		<edge from-layer="1275" from-port="0" to-layer="1276" to-port="1"/>
		<edge from-layer="1276" from-port="2" to-layer="1277" to-port="0"/>
		<edge from-layer="1277" from-port="1" to-layer="1279" to-port="0"/>
		<edge from-layer="1278" from-port="0" to-layer="1279" to-port="1"/>
		<edge from-layer="1279" from-port="2" to-layer="1281" to-port="0"/>
		<edge from-layer="1280" from-port="0" to-layer="1282" to-port="0"/>
		<edge from-layer="1281" from-port="1" to-layer="1282" to-port="1"/>
		<edge from-layer="1279" from-port="2" to-layer="1283" to-port="0"/>
		<edge from-layer="1282" from-port="2" to-layer="1283" to-port="1"/>
		<edge from-layer="1269" from-port="1" to-layer="1286" to-port="0"/>
		<edge from-layer="1284" from-port="0" to-layer="1286" to-port="1"/>
		<edge from-layer="1285" from-port="0" to-layer="1286" to-port="2"/>
		<edge from-layer="1268" from-port="0" to-layer="1287" to-port="0"/>
		<edge from-layer="1286" from-port="3" to-layer="1287" to-port="1"/>
		<edge from-layer="1273" from-port="0" to-layer="1287" to-port="2"/>
		<edge from-layer="1287" from-port="3" to-layer="1289" to-port="0"/>
		<edge from-layer="1288" from-port="0" to-layer="1289" to-port="1"/>
		<edge from-layer="1289" from-port="2" to-layer="1290" to-port="0"/>
		<edge from-layer="1290" from-port="1" to-layer="1292" to-port="0"/>
		<edge from-layer="1291" from-port="0" to-layer="1292" to-port="1"/>
		<edge from-layer="1292" from-port="2" to-layer="1293" to-port="0"/>
		<edge from-layer="1293" from-port="1" to-layer="1294" to-port="0"/>
		<edge from-layer="1281" from-port="1" to-layer="1294" to-port="1"/>
		<edge from-layer="1283" from-port="2" to-layer="1295" to-port="0"/>
		<edge from-layer="1294" from-port="2" to-layer="1295" to-port="1"/>
		<edge from-layer="1295" from-port="2" to-layer="1297" to-port="0"/>
		<edge from-layer="1296" from-port="0" to-layer="1297" to-port="1"/>
		<edge from-layer="1297" from-port="2" to-layer="1299" to-port="0"/>
		<edge from-layer="1298" from-port="0" to-layer="1299" to-port="1"/>
		<edge from-layer="1293" from-port="1" to-layer="1301" to-port="0"/>
		<edge from-layer="1300" from-port="0" to-layer="1301" to-port="1"/>
		<edge from-layer="1292" from-port="2" to-layer="1302" to-port="0"/>
		<edge from-layer="1301" from-port="2" to-layer="1302" to-port="1"/>
		<edge from-layer="1302" from-port="2" to-layer="1303" to-port="0"/>
		<edge from-layer="1294" from-port="2" to-layer="1303" to-port="1"/>
		<edge from-layer="1303" from-port="2" to-layer="1305" to-port="0"/>
		<edge from-layer="1304" from-port="0" to-layer="1305" to-port="1"/>
		<edge from-layer="1305" from-port="2" to-layer="1307" to-port="0"/>
		<edge from-layer="1306" from-port="0" to-layer="1307" to-port="1"/>
		<edge from-layer="1297" from-port="2" to-layer="1309" to-port="0"/>
		<edge from-layer="1308" from-port="0" to-layer="1310" to-port="0"/>
		<edge from-layer="1309" from-port="1" to-layer="1310" to-port="1"/>
		<edge from-layer="1310" from-port="2" to-layer="1312" to-port="0"/>
		<edge from-layer="1311" from-port="0" to-layer="1312" to-port="1"/>
		<edge from-layer="1305" from-port="2" to-layer="1314" to-port="0"/>
		<edge from-layer="1313" from-port="0" to-layer="1315" to-port="0"/>
		<edge from-layer="1314" from-port="1" to-layer="1315" to-port="1"/>
		<edge from-layer="1315" from-port="2" to-layer="1317" to-port="0"/>
		<edge from-layer="1316" from-port="0" to-layer="1317" to-port="1"/>
		<edge from-layer="1299" from-port="2" to-layer="1318" to-port="0"/>
		<edge from-layer="1307" from-port="2" to-layer="1318" to-port="1"/>
		<edge from-layer="1312" from-port="2" to-layer="1318" to-port="2"/>
		<edge from-layer="1317" from-port="2" to-layer="1318" to-port="3"/>
		<edge from-layer="953" from-port="2" to-layer="1319" to-port="0"/>
		<edge from-layer="1319" from-port="1" to-layer="1322" to-port="0"/>
		<edge from-layer="1320" from-port="0" to-layer="1322" to-port="1"/>
		<edge from-layer="1321" from-port="0" to-layer="1322" to-port="2"/>
		<edge from-layer="1268" from-port="0" to-layer="1323" to-port="0"/>
		<edge from-layer="1322" from-port="3" to-layer="1323" to-port="1"/>
		<edge from-layer="1273" from-port="0" to-layer="1323" to-port="2"/>
		<edge from-layer="1323" from-port="3" to-layer="1325" to-port="0"/>
		<edge from-layer="1324" from-port="0" to-layer="1325" to-port="1"/>
		<edge from-layer="1325" from-port="2" to-layer="1326" to-port="0"/>
		<edge from-layer="1326" from-port="1" to-layer="1328" to-port="0"/>
		<edge from-layer="1327" from-port="0" to-layer="1328" to-port="1"/>
		<edge from-layer="1328" from-port="2" to-layer="1330" to-port="0"/>
		<edge from-layer="1329" from-port="0" to-layer="1331" to-port="0"/>
		<edge from-layer="1330" from-port="1" to-layer="1331" to-port="1"/>
		<edge from-layer="1328" from-port="2" to-layer="1332" to-port="0"/>
		<edge from-layer="1331" from-port="2" to-layer="1332" to-port="1"/>
		<edge from-layer="1319" from-port="1" to-layer="1335" to-port="0"/>
		<edge from-layer="1333" from-port="0" to-layer="1335" to-port="1"/>
		<edge from-layer="1334" from-port="0" to-layer="1335" to-port="2"/>
		<edge from-layer="1268" from-port="0" to-layer="1336" to-port="0"/>
		<edge from-layer="1335" from-port="3" to-layer="1336" to-port="1"/>
		<edge from-layer="1273" from-port="0" to-layer="1336" to-port="2"/>
		<edge from-layer="1336" from-port="3" to-layer="1338" to-port="0"/>
		<edge from-layer="1337" from-port="0" to-layer="1338" to-port="1"/>
		<edge from-layer="1338" from-port="2" to-layer="1339" to-port="0"/>
		<edge from-layer="1339" from-port="1" to-layer="1341" to-port="0"/>
		<edge from-layer="1340" from-port="0" to-layer="1341" to-port="1"/>
		<edge from-layer="1341" from-port="2" to-layer="1342" to-port="0"/>
		<edge from-layer="1342" from-port="1" to-layer="1343" to-port="0"/>
		<edge from-layer="1330" from-port="1" to-layer="1343" to-port="1"/>
		<edge from-layer="1332" from-port="2" to-layer="1344" to-port="0"/>
		<edge from-layer="1343" from-port="2" to-layer="1344" to-port="1"/>
		<edge from-layer="1344" from-port="2" to-layer="1346" to-port="0"/>
		<edge from-layer="1345" from-port="0" to-layer="1346" to-port="1"/>
		<edge from-layer="1346" from-port="2" to-layer="1348" to-port="0"/>
		<edge from-layer="1347" from-port="0" to-layer="1348" to-port="1"/>
		<edge from-layer="1342" from-port="1" to-layer="1350" to-port="0"/>
		<edge from-layer="1349" from-port="0" to-layer="1350" to-port="1"/>
		<edge from-layer="1341" from-port="2" to-layer="1351" to-port="0"/>
		<edge from-layer="1350" from-port="2" to-layer="1351" to-port="1"/>
		<edge from-layer="1351" from-port="2" to-layer="1352" to-port="0"/>
		<edge from-layer="1343" from-port="2" to-layer="1352" to-port="1"/>
		<edge from-layer="1352" from-port="2" to-layer="1354" to-port="0"/>
		<edge from-layer="1353" from-port="0" to-layer="1354" to-port="1"/>
		<edge from-layer="1354" from-port="2" to-layer="1356" to-port="0"/>
		<edge from-layer="1355" from-port="0" to-layer="1356" to-port="1"/>
		<edge from-layer="1346" from-port="2" to-layer="1358" to-port="0"/>
		<edge from-layer="1357" from-port="0" to-layer="1359" to-port="0"/>
		<edge from-layer="1358" from-port="1" to-layer="1359" to-port="1"/>
		<edge from-layer="1359" from-port="2" to-layer="1361" to-port="0"/>
		<edge from-layer="1360" from-port="0" to-layer="1361" to-port="1"/>
		<edge from-layer="1354" from-port="2" to-layer="1363" to-port="0"/>
		<edge from-layer="1362" from-port="0" to-layer="1364" to-port="0"/>
		<edge from-layer="1363" from-port="1" to-layer="1364" to-port="1"/>
		<edge from-layer="1364" from-port="2" to-layer="1366" to-port="0"/>
		<edge from-layer="1365" from-port="0" to-layer="1366" to-port="1"/>
		<edge from-layer="1348" from-port="2" to-layer="1367" to-port="0"/>
		<edge from-layer="1356" from-port="2" to-layer="1367" to-port="1"/>
		<edge from-layer="1361" from-port="2" to-layer="1367" to-port="2"/>
		<edge from-layer="1366" from-port="2" to-layer="1367" to-port="3"/>
		<edge from-layer="1089" from-port="2" to-layer="1368" to-port="0"/>
		<edge from-layer="1368" from-port="1" to-layer="1371" to-port="0"/>
		<edge from-layer="1369" from-port="0" to-layer="1371" to-port="1"/>
		<edge from-layer="1370" from-port="0" to-layer="1371" to-port="2"/>
		<edge from-layer="1268" from-port="0" to-layer="1372" to-port="0"/>
		<edge from-layer="1371" from-port="3" to-layer="1372" to-port="1"/>
		<edge from-layer="1273" from-port="0" to-layer="1372" to-port="2"/>
		<edge from-layer="1372" from-port="3" to-layer="1374" to-port="0"/>
		<edge from-layer="1373" from-port="0" to-layer="1374" to-port="1"/>
		<edge from-layer="1374" from-port="2" to-layer="1375" to-port="0"/>
		<edge from-layer="1375" from-port="1" to-layer="1377" to-port="0"/>
		<edge from-layer="1376" from-port="0" to-layer="1377" to-port="1"/>
		<edge from-layer="1377" from-port="2" to-layer="1379" to-port="0"/>
		<edge from-layer="1378" from-port="0" to-layer="1380" to-port="0"/>
		<edge from-layer="1379" from-port="1" to-layer="1380" to-port="1"/>
		<edge from-layer="1377" from-port="2" to-layer="1381" to-port="0"/>
		<edge from-layer="1380" from-port="2" to-layer="1381" to-port="1"/>
		<edge from-layer="1368" from-port="1" to-layer="1384" to-port="0"/>
		<edge from-layer="1382" from-port="0" to-layer="1384" to-port="1"/>
		<edge from-layer="1383" from-port="0" to-layer="1384" to-port="2"/>
		<edge from-layer="1268" from-port="0" to-layer="1385" to-port="0"/>
		<edge from-layer="1384" from-port="3" to-layer="1385" to-port="1"/>
		<edge from-layer="1273" from-port="0" to-layer="1385" to-port="2"/>
		<edge from-layer="1385" from-port="3" to-layer="1387" to-port="0"/>
		<edge from-layer="1386" from-port="0" to-layer="1387" to-port="1"/>
		<edge from-layer="1387" from-port="2" to-layer="1388" to-port="0"/>
		<edge from-layer="1388" from-port="1" to-layer="1390" to-port="0"/>
		<edge from-layer="1389" from-port="0" to-layer="1390" to-port="1"/>
		<edge from-layer="1390" from-port="2" to-layer="1391" to-port="0"/>
		<edge from-layer="1391" from-port="1" to-layer="1392" to-port="0"/>
		<edge from-layer="1379" from-port="1" to-layer="1392" to-port="1"/>
		<edge from-layer="1381" from-port="2" to-layer="1393" to-port="0"/>
		<edge from-layer="1392" from-port="2" to-layer="1393" to-port="1"/>
		<edge from-layer="1393" from-port="2" to-layer="1395" to-port="0"/>
		<edge from-layer="1394" from-port="0" to-layer="1395" to-port="1"/>
		<edge from-layer="1395" from-port="2" to-layer="1397" to-port="0"/>
		<edge from-layer="1396" from-port="0" to-layer="1397" to-port="1"/>
		<edge from-layer="1391" from-port="1" to-layer="1399" to-port="0"/>
		<edge from-layer="1398" from-port="0" to-layer="1399" to-port="1"/>
		<edge from-layer="1390" from-port="2" to-layer="1400" to-port="0"/>
		<edge from-layer="1399" from-port="2" to-layer="1400" to-port="1"/>
		<edge from-layer="1400" from-port="2" to-layer="1401" to-port="0"/>
		<edge from-layer="1392" from-port="2" to-layer="1401" to-port="1"/>
		<edge from-layer="1401" from-port="2" to-layer="1403" to-port="0"/>
		<edge from-layer="1402" from-port="0" to-layer="1403" to-port="1"/>
		<edge from-layer="1403" from-port="2" to-layer="1405" to-port="0"/>
		<edge from-layer="1404" from-port="0" to-layer="1405" to-port="1"/>
		<edge from-layer="1395" from-port="2" to-layer="1407" to-port="0"/>
		<edge from-layer="1406" from-port="0" to-layer="1408" to-port="0"/>
		<edge from-layer="1407" from-port="1" to-layer="1408" to-port="1"/>
		<edge from-layer="1408" from-port="2" to-layer="1410" to-port="0"/>
		<edge from-layer="1409" from-port="0" to-layer="1410" to-port="1"/>
		<edge from-layer="1403" from-port="2" to-layer="1412" to-port="0"/>
		<edge from-layer="1411" from-port="0" to-layer="1413" to-port="0"/>
		<edge from-layer="1412" from-port="1" to-layer="1413" to-port="1"/>
		<edge from-layer="1413" from-port="2" to-layer="1415" to-port="0"/>
		<edge from-layer="1414" from-port="0" to-layer="1415" to-port="1"/>
		<edge from-layer="1397" from-port="2" to-layer="1416" to-port="0"/>
		<edge from-layer="1405" from-port="2" to-layer="1416" to-port="1"/>
		<edge from-layer="1410" from-port="2" to-layer="1416" to-port="2"/>
		<edge from-layer="1415" from-port="2" to-layer="1416" to-port="3"/>
		<edge from-layer="1318" from-port="4" to-layer="1417" to-port="0"/>
		<edge from-layer="1367" from-port="4" to-layer="1417" to-port="1"/>
		<edge from-layer="1416" from-port="4" to-layer="1417" to-port="2"/>
		<edge from-layer="1417" from-port="3" to-layer="1421" to-port="0"/>
		<edge from-layer="1418" from-port="0" to-layer="1421" to-port="1"/>
		<edge from-layer="1419" from-port="0" to-layer="1421" to-port="2"/>
		<edge from-layer="1420" from-port="0" to-layer="1421" to-port="3"/>
		<edge from-layer="1267" from-port="4" to-layer="1422" to-port="0"/>
		<edge from-layer="1421" from-port="4" to-layer="1422" to-port="1"/>
		<edge from-layer="1417" from-port="3" to-layer="1426" to-port="0"/>
		<edge from-layer="1423" from-port="0" to-layer="1426" to-port="1"/>
		<edge from-layer="1424" from-port="0" to-layer="1426" to-port="2"/>
		<edge from-layer="1425" from-port="0" to-layer="1426" to-port="3"/>
		<edge from-layer="1422" from-port="2" to-layer="1427" to-port="0"/>
		<edge from-layer="1426" from-port="4" to-layer="1427" to-port="1"/>
		<edge from-layer="1427" from-port="2" to-layer="1430" to-port="0"/>
		<edge from-layer="1428" from-port="0" to-layer="1430" to-port="1"/>
		<edge from-layer="1429" from-port="0" to-layer="1430" to-port="2"/>
		<edge from-layer="1263" from-port="3" to-layer="1434" to-port="0"/>
		<edge from-layer="1431" from-port="0" to-layer="1434" to-port="1"/>
		<edge from-layer="1432" from-port="0" to-layer="1434" to-port="2"/>
		<edge from-layer="1433" from-port="0" to-layer="1434" to-port="3"/>
		<edge from-layer="1434" from-port="4" to-layer="1435" to-port="0"/>
		<edge from-layer="1417" from-port="3" to-layer="1439" to-port="0"/>
		<edge from-layer="1436" from-port="0" to-layer="1439" to-port="1"/>
		<edge from-layer="1437" from-port="0" to-layer="1439" to-port="2"/>
		<edge from-layer="1438" from-port="0" to-layer="1439" to-port="3"/>
		<edge from-layer="1435" from-port="1" to-layer="1440" to-port="0"/>
		<edge from-layer="1439" from-port="4" to-layer="1440" to-port="1"/>
		<edge from-layer="1440" from-port="2" to-layer="1443" to-port="0"/>
		<edge from-layer="1441" from-port="0" to-layer="1443" to-port="1"/>
		<edge from-layer="1442" from-port="0" to-layer="1443" to-port="2"/>
		<edge from-layer="1443" from-port="3" to-layer="1445" to-port="0"/>
		<edge from-layer="1444" from-port="0" to-layer="1445" to-port="1"/>
		<edge from-layer="1430" from-port="3" to-layer="1446" to-port="0"/>
		<edge from-layer="1445" from-port="2" to-layer="1446" to-port="1"/>
		<edge from-layer="1446" from-port="2" to-layer="1448" to-port="0"/>
		<edge from-layer="1447" from-port="0" to-layer="1448" to-port="1"/>
		<edge from-layer="1427" from-port="2" to-layer="1451" to-port="0"/>
		<edge from-layer="1449" from-port="0" to-layer="1451" to-port="1"/>
		<edge from-layer="1450" from-port="0" to-layer="1451" to-port="2"/>
		<edge from-layer="1440" from-port="2" to-layer="1454" to-port="0"/>
		<edge from-layer="1452" from-port="0" to-layer="1454" to-port="1"/>
		<edge from-layer="1453" from-port="0" to-layer="1454" to-port="2"/>
		<edge from-layer="1454" from-port="3" to-layer="1456" to-port="0"/>
		<edge from-layer="1455" from-port="0" to-layer="1456" to-port="1"/>
		<edge from-layer="1451" from-port="3" to-layer="1457" to-port="0"/>
		<edge from-layer="1456" from-port="2" to-layer="1457" to-port="1"/>
		<edge from-layer="1457" from-port="2" to-layer="1459" to-port="0"/>
		<edge from-layer="1458" from-port="0" to-layer="1459" to-port="1"/>
		<edge from-layer="1427" from-port="2" to-layer="1462" to-port="0"/>
		<edge from-layer="1460" from-port="0" to-layer="1462" to-port="1"/>
		<edge from-layer="1461" from-port="0" to-layer="1462" to-port="2"/>
		<edge from-layer="1440" from-port="2" to-layer="1465" to-port="0"/>
		<edge from-layer="1463" from-port="0" to-layer="1465" to-port="1"/>
		<edge from-layer="1464" from-port="0" to-layer="1465" to-port="2"/>
		<edge from-layer="1465" from-port="3" to-layer="1467" to-port="0"/>
		<edge from-layer="1466" from-port="0" to-layer="1467" to-port="1"/>
		<edge from-layer="1462" from-port="3" to-layer="1468" to-port="0"/>
		<edge from-layer="1467" from-port="2" to-layer="1468" to-port="1"/>
		<edge from-layer="1468" from-port="2" to-layer="1470" to-port="0"/>
		<edge from-layer="1469" from-port="0" to-layer="1470" to-port="1"/>
		<edge from-layer="1427" from-port="2" to-layer="1473" to-port="0"/>
		<edge from-layer="1471" from-port="0" to-layer="1473" to-port="1"/>
		<edge from-layer="1472" from-port="0" to-layer="1473" to-port="2"/>
		<edge from-layer="1440" from-port="2" to-layer="1476" to-port="0"/>
		<edge from-layer="1474" from-port="0" to-layer="1476" to-port="1"/>
		<edge from-layer="1475" from-port="0" to-layer="1476" to-port="2"/>
		<edge from-layer="1476" from-port="3" to-layer="1478" to-port="0"/>
		<edge from-layer="1477" from-port="0" to-layer="1478" to-port="1"/>
		<edge from-layer="1473" from-port="3" to-layer="1479" to-port="0"/>
		<edge from-layer="1478" from-port="2" to-layer="1479" to-port="1"/>
		<edge from-layer="1479" from-port="2" to-layer="1481" to-port="0"/>
		<edge from-layer="1480" from-port="0" to-layer="1481" to-port="1"/>
		<edge from-layer="1448" from-port="2" to-layer="1482" to-port="0"/>
		<edge from-layer="1459" from-port="2" to-layer="1482" to-port="1"/>
		<edge from-layer="1470" from-port="2" to-layer="1482" to-port="2"/>
		<edge from-layer="1481" from-port="2" to-layer="1482" to-port="3"/>
		<edge from-layer="1482" from-port="4" to-layer="1483" to-port="0"/>
		<edge from-layer="1483" from-port="1" to-layer="1487" to-port="0"/>
		<edge from-layer="1484" from-port="0" to-layer="1487" to-port="1"/>
		<edge from-layer="1485" from-port="0" to-layer="1487" to-port="2"/>
		<edge from-layer="1486" from-port="0" to-layer="1487" to-port="3"/>
		<edge from-layer="1487" from-port="4" to-layer="1489" to-port="0"/>
		<edge from-layer="1488" from-port="0" to-layer="1489" to-port="1"/>
		<edge from-layer="1489" from-port="2" to-layer="1491" to-port="0"/>
		<edge from-layer="1490" from-port="0" to-layer="1491" to-port="1"/>
		<edge from-layer="1482" from-port="4" to-layer="1492" to-port="0"/>
		<edge from-layer="1491" from-port="2" to-layer="1492" to-port="1"/>
		<edge from-layer="1209" from-port="2" to-layer="1494" to-port="0"/>
		<edge from-layer="1494" from-port="1" to-layer="1497" to-port="0"/>
		<edge from-layer="1495" from-port="0" to-layer="1497" to-port="1"/>
		<edge from-layer="1496" from-port="0" to-layer="1497" to-port="2"/>
		<edge from-layer="1493" from-port="0" to-layer="1499" to-port="0"/>
		<edge from-layer="1497" from-port="3" to-layer="1499" to-port="1"/>
		<edge from-layer="1498" from-port="0" to-layer="1499" to-port="2"/>
		<edge from-layer="1499" from-port="3" to-layer="1501" to-port="0"/>
		<edge from-layer="1500" from-port="0" to-layer="1501" to-port="1"/>
		<edge from-layer="1483" from-port="1" to-layer="1504" to-port="0"/>
		<edge from-layer="1502" from-port="0" to-layer="1504" to-port="1"/>
		<edge from-layer="1503" from-port="0" to-layer="1504" to-port="2"/>
		<edge from-layer="1501" from-port="2" to-layer="1505" to-port="0"/>
		<edge from-layer="1504" from-port="3" to-layer="1505" to-port="1"/>
		<edge from-layer="1225" from-port="3" to-layer="1506" to-port="0"/>
		<edge from-layer="1505" from-port="2" to-layer="1506" to-port="1"/>
		<edge from-layer="1506" from-port="2" to-layer="1507" to-port="0"/>
		<edge from-layer="1492" from-port="2" to-layer="1509" to-port="0"/>
		<edge from-layer="1507" from-port="1" to-layer="1509" to-port="1"/>
		<edge from-layer="1508" from-port="0" to-layer="1509" to-port="2"/>
		<edge from-layer="1483" from-port="1" to-layer="1513" to-port="0"/>
		<edge from-layer="1511" from-port="0" to-layer="1513" to-port="1"/>
		<edge from-layer="1512" from-port="0" to-layer="1513" to-port="2"/>
		<edge from-layer="1510" from-port="0" to-layer="1514" to-port="0"/>
		<edge from-layer="1513" from-port="3" to-layer="1514" to-port="1"/>
		<edge from-layer="1509" from-port="3" to-layer="1515" to-port="0"/>
		<edge from-layer="1514" from-port="2" to-layer="1515" to-port="1"/>
		<edge from-layer="1506" from-port="2" to-layer="1516" to-port="0"/>
		<edge from-layer="1516" from-port="1" to-layer="1517" to-port="0"/>
		<edge from-layer="1513" from-port="3" to-layer="1517" to-port="1"/>
		<edge from-layer="1515" from-port="2" to-layer="1518" to-port="0"/>
		<edge from-layer="1517" from-port="2" to-layer="1518" to-port="1"/>
		<edge from-layer="1494" from-port="1" to-layer="1522" to-port="0"/>
		<edge from-layer="1519" from-port="0" to-layer="1522" to-port="1"/>
		<edge from-layer="1520" from-port="0" to-layer="1522" to-port="2"/>
		<edge from-layer="1521" from-port="0" to-layer="1522" to-port="3"/>
		<edge from-layer="1522" from-port="4" to-layer="1524" to-port="0"/>
		<edge from-layer="1523" from-port="0" to-layer="1524" to-port="1"/>
		<edge from-layer="1524" from-port="2" to-layer="1526" to-port="0"/>
		<edge from-layer="1525" from-port="0" to-layer="1526" to-port="1"/>
		<edge from-layer="1209" from-port="2" to-layer="1527" to-port="0"/>
		<edge from-layer="1526" from-port="2" to-layer="1527" to-port="1"/>
		<edge from-layer="1494" from-port="1" to-layer="1530" to-port="0"/>
		<edge from-layer="1528" from-port="0" to-layer="1530" to-port="1"/>
		<edge from-layer="1529" from-port="0" to-layer="1530" to-port="2"/>
		<edge from-layer="1501" from-port="2" to-layer="1531" to-port="0"/>
		<edge from-layer="1530" from-port="3" to-layer="1531" to-port="1"/>
		<edge from-layer="1225" from-port="3" to-layer="1532" to-port="0"/>
		<edge from-layer="1531" from-port="2" to-layer="1532" to-port="1"/>
		<edge from-layer="1532" from-port="2" to-layer="1533" to-port="0"/>
		<edge from-layer="1527" from-port="2" to-layer="1535" to-port="0"/>
		<edge from-layer="1533" from-port="1" to-layer="1535" to-port="1"/>
		<edge from-layer="1534" from-port="0" to-layer="1535" to-port="2"/>
		<edge from-layer="1494" from-port="1" to-layer="1539" to-port="0"/>
		<edge from-layer="1537" from-port="0" to-layer="1539" to-port="1"/>
		<edge from-layer="1538" from-port="0" to-layer="1539" to-port="2"/>
		<edge from-layer="1536" from-port="0" to-layer="1540" to-port="0"/>
		<edge from-layer="1539" from-port="3" to-layer="1540" to-port="1"/>
		<edge from-layer="1535" from-port="3" to-layer="1541" to-port="0"/>
		<edge from-layer="1540" from-port="2" to-layer="1541" to-port="1"/>
		<edge from-layer="1532" from-port="2" to-layer="1542" to-port="0"/>
		<edge from-layer="1542" from-port="1" to-layer="1543" to-port="0"/>
		<edge from-layer="1539" from-port="3" to-layer="1543" to-port="1"/>
		<edge from-layer="1541" from-port="2" to-layer="1544" to-port="0"/>
		<edge from-layer="1543" from-port="2" to-layer="1544" to-port="1"/>
		<edge from-layer="1544" from-port="2" to-layer="1546" to-port="0"/>
		<edge from-layer="1545" from-port="0" to-layer="1546" to-port="1"/>
		<edge from-layer="1518" from-port="2" to-layer="1550" to-port="0"/>
		<edge from-layer="1546" from-port="2" to-layer="1550" to-port="1"/>
		<edge from-layer="1549" from-port="0" to-layer="1550" to-port="2"/>
		<edge from-layer="1547" from-port="0" to-layer="1550" to-port="3"/>
		<edge from-layer="1548" from-port="0" to-layer="1550" to-port="4"/>
		<edge from-layer="1550" from-port="5" to-layer="1553" to-port="0"/>
		<edge from-layer="1551" from-port="0" to-layer="1553" to-port="1"/>
		<edge from-layer="1552" from-port="0" to-layer="1553" to-port="2"/>
		<edge from-layer="1268" from-port="0" to-layer="1554" to-port="0"/>
		<edge from-layer="1497" from-port="3" to-layer="1554" to-port="1"/>
		<edge from-layer="1273" from-port="0" to-layer="1554" to-port="2"/>
		<edge from-layer="1554" from-port="3" to-layer="1556" to-port="0"/>
		<edge from-layer="1555" from-port="0" to-layer="1556" to-port="1"/>
		<edge from-layer="1553" from-port="3" to-layer="1557" to-port="0"/>
		<edge from-layer="1556" from-port="2" to-layer="1557" to-port="1"/>
		<edge from-layer="1557" from-port="2" to-layer="1559" to-port="0"/>
		<edge from-layer="1558" from-port="0" to-layer="1559" to-port="1"/>
		<edge from-layer="1518" from-port="2" to-layer="1560" to-port="0"/>
		<edge from-layer="1560" from-port="1" to-layer="1564" to-port="0"/>
		<edge from-layer="1561" from-port="0" to-layer="1564" to-port="1"/>
		<edge from-layer="1562" from-port="0" to-layer="1564" to-port="2"/>
		<edge from-layer="1563" from-port="0" to-layer="1564" to-port="3"/>
		<edge from-layer="1564" from-port="4" to-layer="1566" to-port="0"/>
		<edge from-layer="1565" from-port="0" to-layer="1566" to-port="1"/>
		<edge from-layer="1566" from-port="2" to-layer="1568" to-port="0"/>
		<edge from-layer="1567" from-port="0" to-layer="1568" to-port="1"/>
		<edge from-layer="1518" from-port="2" to-layer="1569" to-port="0"/>
		<edge from-layer="1568" from-port="2" to-layer="1569" to-port="1"/>
		<edge from-layer="1550" from-port="5" to-layer="1572" to-port="0"/>
		<edge from-layer="1570" from-port="0" to-layer="1572" to-port="1"/>
		<edge from-layer="1571" from-port="0" to-layer="1572" to-port="2"/>
		<edge from-layer="1560" from-port="1" to-layer="1575" to-port="0"/>
		<edge from-layer="1573" from-port="0" to-layer="1575" to-port="1"/>
		<edge from-layer="1574" from-port="0" to-layer="1575" to-port="2"/>
		<edge from-layer="1553" from-port="3" to-layer="1576" to-port="0"/>
		<edge from-layer="1575" from-port="3" to-layer="1576" to-port="1"/>
		<edge from-layer="1572" from-port="3" to-layer="1577" to-port="0"/>
		<edge from-layer="1576" from-port="2" to-layer="1577" to-port="1"/>
		<edge from-layer="1577" from-port="2" to-layer="1578" to-port="0"/>
		<edge from-layer="1569" from-port="2" to-layer="1580" to-port="0"/>
		<edge from-layer="1578" from-port="1" to-layer="1580" to-port="1"/>
		<edge from-layer="1579" from-port="0" to-layer="1580" to-port="2"/>
		<edge from-layer="1560" from-port="1" to-layer="1584" to-port="0"/>
		<edge from-layer="1582" from-port="0" to-layer="1584" to-port="1"/>
		<edge from-layer="1583" from-port="0" to-layer="1584" to-port="2"/>
		<edge from-layer="1581" from-port="0" to-layer="1585" to-port="0"/>
		<edge from-layer="1584" from-port="3" to-layer="1585" to-port="1"/>
		<edge from-layer="1580" from-port="3" to-layer="1586" to-port="0"/>
		<edge from-layer="1585" from-port="2" to-layer="1586" to-port="1"/>
		<edge from-layer="1577" from-port="2" to-layer="1587" to-port="0"/>
		<edge from-layer="1587" from-port="1" to-layer="1588" to-port="0"/>
		<edge from-layer="1584" from-port="3" to-layer="1588" to-port="1"/>
		<edge from-layer="1586" from-port="2" to-layer="1589" to-port="0"/>
		<edge from-layer="1588" from-port="2" to-layer="1589" to-port="1"/>
		<edge from-layer="1544" from-port="2" to-layer="1591" to-port="0"/>
		<edge from-layer="1590" from-port="0" to-layer="1591" to-port="1"/>
		<edge from-layer="1591" from-port="2" to-layer="1592" to-port="0"/>
		<edge from-layer="1592" from-port="1" to-layer="1596" to-port="0"/>
		<edge from-layer="1593" from-port="0" to-layer="1596" to-port="1"/>
		<edge from-layer="1594" from-port="0" to-layer="1596" to-port="2"/>
		<edge from-layer="1595" from-port="0" to-layer="1596" to-port="3"/>
		<edge from-layer="1596" from-port="4" to-layer="1598" to-port="0"/>
		<edge from-layer="1597" from-port="0" to-layer="1598" to-port="1"/>
		<edge from-layer="1598" from-port="2" to-layer="1600" to-port="0"/>
		<edge from-layer="1599" from-port="0" to-layer="1600" to-port="1"/>
		<edge from-layer="1591" from-port="2" to-layer="1601" to-port="0"/>
		<edge from-layer="1600" from-port="2" to-layer="1601" to-port="1"/>
		<edge from-layer="1550" from-port="5" to-layer="1604" to-port="0"/>
		<edge from-layer="1602" from-port="0" to-layer="1604" to-port="1"/>
		<edge from-layer="1603" from-port="0" to-layer="1604" to-port="2"/>
		<edge from-layer="1546" from-port="2" to-layer="1605" to-port="0"/>
		<edge from-layer="1605" from-port="1" to-layer="1608" to-port="0"/>
		<edge from-layer="1606" from-port="0" to-layer="1608" to-port="1"/>
		<edge from-layer="1607" from-port="0" to-layer="1608" to-port="2"/>
		<edge from-layer="1604" from-port="3" to-layer="1609" to-port="0"/>
		<edge from-layer="1608" from-port="3" to-layer="1609" to-port="1"/>
		<edge from-layer="1572" from-port="3" to-layer="1610" to-port="0"/>
		<edge from-layer="1609" from-port="2" to-layer="1610" to-port="1"/>
		<edge from-layer="1605" from-port="1" to-layer="1613" to-port="0"/>
		<edge from-layer="1611" from-port="0" to-layer="1613" to-port="1"/>
		<edge from-layer="1612" from-port="0" to-layer="1613" to-port="2"/>
		<edge from-layer="1608" from-port="3" to-layer="1614" to-port="0"/>
		<edge from-layer="1613" from-port="3" to-layer="1614" to-port="1"/>
		<edge from-layer="1553" from-port="3" to-layer="1615" to-port="0"/>
		<edge from-layer="1614" from-port="2" to-layer="1615" to-port="1"/>
		<edge from-layer="1610" from-port="2" to-layer="1616" to-port="0"/>
		<edge from-layer="1615" from-port="2" to-layer="1616" to-port="1"/>
		<edge from-layer="1616" from-port="2" to-layer="1617" to-port="0"/>
		<edge from-layer="1601" from-port="2" to-layer="1619" to-port="0"/>
		<edge from-layer="1617" from-port="1" to-layer="1619" to-port="1"/>
		<edge from-layer="1618" from-port="0" to-layer="1619" to-port="2"/>
		<edge from-layer="1619" from-port="3" to-layer="1621" to-port="0"/>
		<edge from-layer="1620" from-port="0" to-layer="1621" to-port="1"/>
		<edge from-layer="1616" from-port="2" to-layer="1622" to-port="0"/>
		<edge from-layer="1621" from-port="2" to-layer="1623" to-port="0"/>
		<edge from-layer="1622" from-port="1" to-layer="1623" to-port="1"/>
		<edge from-layer="1623" from-port="2" to-layer="1625" to-port="0"/>
		<edge from-layer="1624" from-port="0" to-layer="1625" to-port="1"/>
		<edge from-layer="1589" from-port="2" to-layer="1626" to-port="0"/>
		<edge from-layer="1625" from-port="2" to-layer="1626" to-port="1"/>
		<edge from-layer="1626" from-port="2" to-layer="1628" to-port="0"/>
		<edge from-layer="1627" from-port="0" to-layer="1628" to-port="1"/>
		<edge from-layer="1628" from-port="2" to-layer="1630" to-port="0"/>
		<edge from-layer="1629" from-port="0" to-layer="1630" to-port="1"/>
		<edge from-layer="1494" from-port="1" to-layer="1633" to-port="0"/>
		<edge from-layer="1631" from-port="0" to-layer="1633" to-port="1"/>
		<edge from-layer="1632" from-port="0" to-layer="1633" to-port="2"/>
		<edge from-layer="1633" from-port="3" to-layer="1634" to-port="0"/>
		<edge from-layer="825" from-port="0" to-layer="1634" to-port="1"/>
		<edge from-layer="825" from-port="0" to-layer="1634" to-port="2"/>
		<edge from-layer="1630" from-port="2" to-layer="1635" to-port="0"/>
		<edge from-layer="1634" from-port="3" to-layer="1635" to-port="1"/>
		<edge from-layer="1559" from-port="2" to-layer="1637" to-port="0"/>
		<edge from-layer="1635" from-port="2" to-layer="1637" to-port="1"/>
		<edge from-layer="1636" from-port="0" to-layer="1637" to-port="2"/>
		<edge from-layer="1637" from-port="3" to-layer="1639" to-port="0"/>
		<edge from-layer="1639" from-port="1" to-layer="1642" to-port="0"/>
		<edge from-layer="1640" from-port="0" to-layer="1642" to-port="1"/>
		<edge from-layer="1641" from-port="0" to-layer="1642" to-port="2"/>
		<edge from-layer="1642" from-port="3" to-layer="1644" to-port="0"/>
		<edge from-layer="825" from-port="0" to-layer="1644" to-port="1"/>
		<edge from-layer="1643" from-port="0" to-layer="1644" to-port="2"/>
		<edge from-layer="1638" from-port="0" to-layer="1645" to-port="0"/>
		<edge from-layer="1644" from-port="3" to-layer="1645" to-port="1"/>
		<edge from-layer="1637" from-port="3" to-layer="1646" to-port="0"/>
		<edge from-layer="1645" from-port="2" to-layer="1646" to-port="1"/>
		<edge from-layer="1646" from-port="2" to-layer="1649" to-port="0"/>
		<edge from-layer="1647" from-port="0" to-layer="1649" to-port="1"/>
		<edge from-layer="1648" from-port="0" to-layer="1649" to-port="2"/>
		<edge from-layer="1649" from-port="3" to-layer="1650" to-port="0"/>
		<edge from-layer="1650" from-port="1" to-layer="1653" to-port="0"/>
		<edge from-layer="1651" from-port="0" to-layer="1653" to-port="1"/>
		<edge from-layer="1652" from-port="0" to-layer="1653" to-port="2"/>
		<edge from-layer="1654" from-port="0" to-layer="1655" to-port="0"/>
		<edge from-layer="1653" from-port="3" to-layer="1655" to-port="1"/>
		<edge from-layer="1655" from-port="2" to-layer="1657" to-port="0"/>
		<edge from-layer="1656" from-port="0" to-layer="1657" to-port="1"/>
		<edge from-layer="1653" from-port="3" to-layer="1657" to-port="2"/>
		<edge from-layer="1657" from-port="3" to-layer="1659" to-port="0"/>
		<edge from-layer="1658" from-port="0" to-layer="1659" to-port="1"/>
		<edge from-layer="1659" from-port="2" to-layer="1661" to-port="0"/>
		<edge from-layer="1660" from-port="0" to-layer="1661" to-port="1"/>
		<edge from-layer="1661" from-port="2" to-layer="1662" to-port="0"/>
		<edge from-layer="1649" from-port="3" to-layer="1663" to-port="0"/>
		<edge from-layer="1662" from-port="1" to-layer="1663" to-port="1"/>
		<edge from-layer="1646" from-port="2" to-layer="1667" to-port="0"/>
		<edge from-layer="1667" from-port="1" to-layer="1671" to-port="0"/>
		<edge from-layer="1668" from-port="0" to-layer="1671" to-port="1"/>
		<edge from-layer="1669" from-port="0" to-layer="1671" to-port="2"/>
		<edge from-layer="1670" from-port="0" to-layer="1671" to-port="3"/>
		<edge from-layer="1671" from-port="4" to-layer="1673" to-port="0"/>
		<edge from-layer="1672" from-port="0" to-layer="1673" to-port="1"/>
		<edge from-layer="1673" from-port="2" to-layer="1675" to-port="0"/>
		<edge from-layer="1674" from-port="0" to-layer="1675" to-port="1"/>
		<edge from-layer="1646" from-port="2" to-layer="1676" to-port="0"/>
		<edge from-layer="1675" from-port="2" to-layer="1676" to-port="1"/>
		<edge from-layer="1667" from-port="1" to-layer="1679" to-port="0"/>
		<edge from-layer="1677" from-port="0" to-layer="1679" to-port="1"/>
		<edge from-layer="1678" from-port="0" to-layer="1679" to-port="2"/>
		<edge from-layer="1681" from-port="0" to-layer="1683" to-port="0"/>
		<edge from-layer="1497" from-port="3" to-layer="1683" to-port="1"/>
		<edge from-layer="1682" from-port="0" to-layer="1683" to-port="2"/>
		<edge from-layer="1683" from-port="3" to-layer="1684" to-port="0"/>
		<edge from-layer="1680" from-port="0" to-layer="1684" to-port="1"/>
		<edge from-layer="1684" from-port="2" to-layer="1685" to-port="0"/>
		<edge from-layer="1679" from-port="3" to-layer="1685" to-port="1"/>
		<edge from-layer="1663" from-port="3" to-layer="1686" to-port="0"/>
		<edge from-layer="1685" from-port="2" to-layer="1686" to-port="1"/>
		<edge from-layer="1686" from-port="2" to-layer="1687" to-port="0"/>
		<edge from-layer="1676" from-port="2" to-layer="1689" to-port="0"/>
		<edge from-layer="1687" from-port="1" to-layer="1689" to-port="1"/>
		<edge from-layer="1688" from-port="0" to-layer="1689" to-port="2"/>
		<edge from-layer="1667" from-port="1" to-layer="1693" to-port="0"/>
		<edge from-layer="1691" from-port="0" to-layer="1693" to-port="1"/>
		<edge from-layer="1692" from-port="0" to-layer="1693" to-port="2"/>
		<edge from-layer="1690" from-port="0" to-layer="1694" to-port="0"/>
		<edge from-layer="1693" from-port="3" to-layer="1694" to-port="1"/>
		<edge from-layer="1689" from-port="3" to-layer="1695" to-port="0"/>
		<edge from-layer="1694" from-port="2" to-layer="1695" to-port="1"/>
		<edge from-layer="1686" from-port="2" to-layer="1696" to-port="0"/>
		<edge from-layer="1696" from-port="1" to-layer="1697" to-port="0"/>
		<edge from-layer="1693" from-port="3" to-layer="1697" to-port="1"/>
		<edge from-layer="1695" from-port="2" to-layer="1698" to-port="0"/>
		<edge from-layer="1697" from-port="2" to-layer="1698" to-port="1"/>
		<edge from-layer="1554" from-port="3" to-layer="1704" to-port="0"/>
		<edge from-layer="1703" from-port="0" to-layer="1704" to-port="1"/>
		<edge from-layer="1553" from-port="3" to-layer="1705" to-port="0"/>
		<edge from-layer="1704" from-port="2" to-layer="1705" to-port="1"/>
		<edge from-layer="1604" from-port="3" to-layer="1707" to-port="0"/>
		<edge from-layer="1706" from-port="0" to-layer="1707" to-port="1"/>
		<edge from-layer="1707" from-port="2" to-layer="1709" to-port="0"/>
		<edge from-layer="1708" from-port="0" to-layer="1709" to-port="1"/>
		<edge from-layer="1494" from-port="1" to-layer="1712" to-port="0"/>
		<edge from-layer="1710" from-port="0" to-layer="1712" to-port="1"/>
		<edge from-layer="1711" from-port="0" to-layer="1712" to-port="2"/>
		<edge from-layer="1712" from-port="3" to-layer="1713" to-port="0"/>
		<edge from-layer="825" from-port="0" to-layer="1713" to-port="1"/>
		<edge from-layer="1709" from-port="2" to-layer="1714" to-port="0"/>
		<edge from-layer="1713" from-port="2" to-layer="1714" to-port="1"/>
		<edge from-layer="1705" from-port="2" to-layer="1716" to-port="0"/>
		<edge from-layer="1714" from-port="2" to-layer="1716" to-port="1"/>
		<edge from-layer="1715" from-port="0" to-layer="1716" to-port="2"/>
		<edge from-layer="1639" from-port="1" to-layer="1720" to-port="0"/>
		<edge from-layer="1718" from-port="0" to-layer="1720" to-port="1"/>
		<edge from-layer="1719" from-port="0" to-layer="1720" to-port="2"/>
		<edge from-layer="1720" from-port="3" to-layer="1721" to-port="0"/>
		<edge from-layer="825" from-port="0" to-layer="1721" to-port="1"/>
		<edge from-layer="1717" from-port="0" to-layer="1722" to-port="0"/>
		<edge from-layer="1721" from-port="2" to-layer="1722" to-port="1"/>
		<edge from-layer="1716" from-port="3" to-layer="1723" to-port="0"/>
		<edge from-layer="1722" from-port="2" to-layer="1723" to-port="1"/>
		<edge from-layer="1723" from-port="2" to-layer="1724" to-port="0"/>
		<edge from-layer="1724" from-port="1" to-layer="1728" to-port="0"/>
		<edge from-layer="1725" from-port="0" to-layer="1728" to-port="1"/>
		<edge from-layer="1726" from-port="0" to-layer="1728" to-port="2"/>
		<edge from-layer="1727" from-port="0" to-layer="1728" to-port="3"/>
		<edge from-layer="1728" from-port="4" to-layer="1730" to-port="0"/>
		<edge from-layer="1729" from-port="0" to-layer="1730" to-port="1"/>
		<edge from-layer="1730" from-port="2" to-layer="1732" to-port="0"/>
		<edge from-layer="1731" from-port="0" to-layer="1732" to-port="1"/>
		<edge from-layer="1723" from-port="2" to-layer="1733" to-port="0"/>
		<edge from-layer="1732" from-port="2" to-layer="1733" to-port="1"/>
		<edge from-layer="1724" from-port="1" to-layer="1736" to-port="0"/>
		<edge from-layer="1734" from-port="0" to-layer="1736" to-port="1"/>
		<edge from-layer="1735" from-port="0" to-layer="1736" to-port="2"/>
		<edge from-layer="1684" from-port="2" to-layer="1737" to-port="0"/>
		<edge from-layer="1736" from-port="3" to-layer="1737" to-port="1"/>
		<edge from-layer="1663" from-port="3" to-layer="1738" to-port="0"/>
		<edge from-layer="1737" from-port="2" to-layer="1738" to-port="1"/>
		<edge from-layer="1738" from-port="2" to-layer="1739" to-port="0"/>
		<edge from-layer="1733" from-port="2" to-layer="1741" to-port="0"/>
		<edge from-layer="1739" from-port="1" to-layer="1741" to-port="1"/>
		<edge from-layer="1740" from-port="0" to-layer="1741" to-port="2"/>
		<edge from-layer="1741" from-port="3" to-layer="1743" to-port="0"/>
		<edge from-layer="1742" from-port="0" to-layer="1743" to-port="1"/>
		<edge from-layer="1738" from-port="2" to-layer="1744" to-port="0"/>
		<edge from-layer="1743" from-port="2" to-layer="1745" to-port="0"/>
		<edge from-layer="1744" from-port="1" to-layer="1745" to-port="1"/>
		<edge from-layer="1698" from-port="2" to-layer="1699" to-port="0"/>
		<edge from-layer="1745" from-port="2" to-layer="1746" to-port="0"/>
	</edges>
	<rt_info>
		<MO_version value="2022.3.0-9052-9752fafe8eb-releases/2022/3"/>
		<Runtime_version value="2022.3.0-9052-9752fafe8eb-releases/2022/3"/>
		<conversion_parameters>
			<framework value="onnx"/>
			<input value="image"/>
			<input_model value="DIR/model_ready.onnx"/>
			<input_shape value="[-1, 3, 416, 416]"/>
			<mean_values value="[123.675, 116.28, 103.53]"/>
			<model_name value="model"/>
			<output value="boxes,labels"/>
			<output_dir value="DIR"/>
			<scale_values value="[58.395, 57.12, 57.375]"/>
		</conversion_parameters>
		<legacy_frontend value="False"/>
		<model_info>
			<confidence_threshold value="0.4"/>
			<iou_threshold value="0.5"/>
			<labels value="CoolerItem"/>
			<model_type value="ssd"/>
		</model_info>
		<quantization_parameters/>
	</rt_info>
	<quantization_parameters>
		<config/>
		<version value="{}"/>
		<cli_params value="{}"/>
	</quantization_parameters>
</net>
